pretrained/ttt_4blocks_32filters.pth (torch_old, 93216 bytes, 66 tensors)

_encoder.conv_in.weight f4 [32, 1, 3, 3]
00000000: f13c d23a 78cb 78bd b779 bb3c fdc2 6f3e
00000010: 921f 8dbe cbe6 f0bd 450c 77be d286 9ebe
00000020: 94ec bdbe d369 073e cf16 cd3d c43a 553e
00000030: 7b69 7ebe d666 a1be d610 7a3e 61ec 53be
00000040: 7113 283e 4ad8 d43c ddbe c6be 7410 82be
00000050: f95b 65be dd3d 38be 2c5a 24be d2a5 24bb
00000060: 03c4 d63d 9ae5 523e b802 2e3d 0ec5 edbd
00000070: f784 313e b082 9bbe aab1 e13d 25fc e83e
00000080: f621 7a3e 99d3 94bd 3b6f 513e 1c05 933e
00000090: 4b65 273e c273 81be aaaf 8ebe bfab d7bd
000000a0: a032 9b3d d342 76bd 0559 aabe cdb0 683e
000000b0: 5404 883e 2a92 a53c a73d 08be 8ba7 8dbe
000000c0: 3dd9 c1bd c041 95bd f4cc 083f da9a dbbd
000000d0: 8a25 42be 7a5c 3abe b669 61be d99e 6a3e
000000e0: 566b 8c3e c1d1 3dbd 2350 97be 4ffd 703d
000000f0: f308 c53d 9d80 643e 2601 b73e 0204 8cbe
00000100: 61e4 a0bd 9ff7 87bd 1c88 02be a35a acbd
00000110: 6bba 5e3d 70ca 0ebe 9629 f43e afb5 10be
00000120: d2ec 9bbd 2c7d e7bd a021 dabd 834c 9bbe
00000130: 7bd3 c93e 9916 10bd 279a 8f3e 5b4f 953e
00000140: 857b 4f3e 3879 17bd 5665 9f3e 01da 953e
00000150: 31da 723e 3ded 8c3e 6ee5 5f3e 20f6 c7bd
00000160: fb8c cc3e c922 2a3e f120 6a3e f73e 343c
00000170: e7b3 973e 2685 93bc d43d 993c 9926 8d3d
00000180: 76bf ac3e 5f5d 083e fd2d f63e 3af6 aabd
00000190: adf5 f4bd 1136 d2bd 0bc0 3cbc 70bf 9c3c
000001a0: 8ded 79bd 22f5 9f3d 7f09 26bf da73 f3bd
000001b0: a0a5 04bf 9aef 09bd c3f8 4cbe cb59 c53c
000001c0: 2a79 28be a951 63be aedb 4b3e c1c6 5fbe
000001d0: 61e2 b1be 8672 40be a874 453d 4e0b 9dbe
000001e0: 1eff 0abf 38b2 67bd 1002 0dbe 9dad 4abe
000001f0: 094e 14be 78af 3ebe 04ba 913e b57b aa3e
00000200: c5d1 883e 11f1 903e bf84 49be 091c 793e
00000210: b3b4 433e 6db0 1e3e 5b45 0e3e 9ef4 d03d
00000220: 2b64 2a3f 81a5 cd3c 4f55 433d f9d2 2abb
00000230: 2a1b 9abb 72d8 15be c844 92bd cad7 1dbd
00000240: c6f7 503e b5ca 0a3e 9cc5 83be e00a 683e
00000250: f563 99be 9eeb 863d 1d85 ae3e c22e e03d
00000260: d47a 203d 8f63 7bbe b483 b9be 1373 c5bc
00000270: 4f22 be3e 09d6 6cbd cce2 fbbd 9a72 343d
00000280: 577c 40bd c777 c83d 840c 7d3e 44f6 a4bd
00000290: 981f e73d be11 093e 971b 8b3c e689 eebe
000002a0: ecf3 b93e 7ef8 24bd 34c8 483e 7e58 9bbe
000002b0: fd85 c5be 3209 a43d 1924 82be 9a49 a1be
000002c0: e801 99bd 1d5f 9bbe 5dd0 91bd 3b72 adbe
000002d0: 5521 0c3e daa5 c2be aae0 f73d 13ed 56be
000002e0: 3822 89be 6194 a23e 3c0e ecbd 0683 64be
000002f0: 5411 153d 32dd 9bbe b5d6 823e 339a 373e
00000300: fae3 6e3d 06b2 d6be dcf8 d13d 3b39 f5bd
00000310: 6ce2 88bb b549 3c3d e879 6fbd 3fe9 4e3e
00000320: ed6a c63e ebd6 9f3c eb1d 953d 111c c73e
00000330: 9c26 13be 33bb 9bbe e008 99bd eb5d 4bbe
00000340: e6b3 183e b26e 2a3e 1ccb 8c3e 85a8 923d
00000350: 0ec5 4c3d e985 d03e 3890 d53e c2a4 3abe
00000360: f146 e53b 040a 363c dda5 2e3e ce3f ec3e
00000370: c97e debd fe2b 213e eb52 0ebe aac3 423e
00000380: 9949 503e 228f d9bd 4b65 4a3e b2a6 23be
00000390: 04af 3bbd faa1 c23e 65b3 83bd 31f8 8e3d
000003a0: 687e 0dbe 035e 203e aeea 213e 2a3c 773e
000003b0: a191 91be b7c3 86be 6cba c3bd 57be 79be
000003c0: 35dd 9f3d a388 753e 9c55 1f3e 2834 3e3e
000003d0: 3d5a 94be 514d b03e 5f4e 5cbe 00db b33e
000003e0: 3354 ef3d 82be e0bd 5e0b 393d 4653 9f3d
000003f0: 2b45 d2bc 5c2e d8be cbdc 72be 2068 2e3e
0.001603989 -0.060740918 0.022885187 0.23414226 -0.2756315 -0.1176277 -0.24125774 -0.30962235
-0.37094557 0.13223962 0.10014116 0.20823199 -0.24844925 -0.3152377 0.24420485 -0.2069564
0.16413666 0.02598204 -0.38817492 -0.25403178 -0.22398366 -0.17992349 -0.16050023 -0.002512325
0.10486605 0.20595399 0.04248306 -0.11609851 0.17335878 -0.30373144 0.11020215 0.4550487
0.24427018 -0.072669216 0.20452587 0.28714836 0.16347234 -0.2528363 -0.27868396 -0.10530805
0.07578015 -0.060122322 -0.33271042 0.22723694 0.26565802 0.020211298 -0.13304769 -0.27666888
-0.09465263 -0.072879314 0.53437734 -0.10722895 -0.18959633 -0.1819934 -0.22012982 0.22912158
0.2742564 -0.046342615 -0.29553327 0.058835324 0.096208476 0.22314687 0.35743064 -0.27346808
-0.0785606 -0.06639027 -0.12747234 -0.08415725 0.054377 -0.13944411 0.47687978 -0.14131807
-0.07613529 -0.113031715 -0.10650945 -0.3033181 0.3941916 -0.0351778 0.28047296 0.29162106
0.20261963 -0.036980838 0.31132 0.29267886 0.23716046 0.27524748 0.21864864 -0.097637415
0.3995131 0.16614832 0.22864129 0.01100134 0.29629442 -0.018007826 0.01870624 0.068921275
0.33739823 0.13316868 0.4808196 -0.08347745 -0.119609214 -0.102642186 -0.011520396 0.019134253
-0.06101756 0.07810427 -0.6485824 -0.11887331 -0.51815224 -0.033675767 -0.2001677 0.024090668
-0.1645247 -0.2219912 0.1990802 -0.21853162 -0.34743026 -0.18793687 0.048206955 -0.30672687
-0.5429553 -0.056566447 -0.13770318 -0.1979279 -0.14482893 -0.18621624 0.2846223 0.33297506
0.2672254 0.2830892 -0.19679545 0.24327101 0.191119 0.15496989 0.13893645 0.10202907
0.66559094 0.025103332 0.04768878 -0.002606569 -0.0047029452 -0.14633349 -0.07142025 -0.03853587
0.20407018 0.13553889 -0.257367 0.22660398 -0.29959074 0.06587909 0.34085932 0.10946418
0.039179638 -0.24549697 -0.36233294 -0.024102723 0.3713555 -0.057821307 -0.122991174 0.044054605
-0.04699358 0.09788471 0.24711806 -0.08054784 0.11285323 0.13385674 0.01698093 -0.46589583
0.3631891 -0.040276043 0.19607621 -0.30340952 -0.38578787 0.08009566 -0.25418165 -0.31501466
-0.07471067 -0.30346003 -0.0711982 -0.33876213 0.1368459 -0.3801716 0.12103398 -0.20988874
-0.2678392 0.3175383 -0.115261525 -0.22315606 0.03639348 -0.30442196 0.25554433 0.17929916
0.058322884 -0.41932696 0.10252544 -0.119738065 -0.004177382 0.04596873 -0.05846587 0.20206164
0.38753453 0.01951166 0.07281097 0.388886 -0.14370197 -0.3041626 -0.07472396 -0.19860046
0.14912376 0.1664379 0.2749871 0.07161049 0.049992613 0.40727165 0.41711593 -0.18226913
0.0069969823 0.011110786 0.1705546 0.4614243 -0.10864026 0.15739438 -0.13898818 0.19019952
0.20340575 -0.106230035 0.19765203 -0.15981558 -0.045821205 0.38014203 -0.06430701 0.069809325
-0.13817751 0.15660863 0.1581218 0.24144045 -0.2843142 -0.26321194 -0.095570415 -0.24389015
0.07805864 0.23977904 0.15560001 0.18574584 -0.28975096 0.34433988 -0.21514271 0.3512802
0.116859816 -0.109738365 0.045176856 0.07779555 -0.025667747 -0.4222287 -0.23717038 0.17031908

_encoder.conv_in.bias f4 [32]
00000000: 21b0 863c 1ab7 e73d 46e9 903e 040b 27bc
00000010: 6dab e5bd 076e a33d 8cb3 40bc a754 e83c
00000020: dcd8 2b3e d904 52be bedc f13c 47ff 8dbe
00000030: b5cb 233e 16c0 763e 6416 603e 01c7 12be
00000040: 7590 8e3e 4b3c 2f3e ce7d 9dbd 84c6 27be
00000050: fdf7 8fbd 0ef3 8c3e 61f0 f13d f24c cf3d
00000060: 4d2f 413d a415 3f3d 00bc 8e3e 0a2c c2bd
00000070: bea2 573e f528 143e 40d4 843c c424 5dbe
0.016441407 0.11314221 0.28302974 -0.010195497 -0.112143375 0.079799704 -0.011761557 0.028360678
0.16781944 -0.20509662 0.029524203 -0.27733824 0.15995677 0.24096712 0.21883541 -0.14333726
0.27844587 0.17112844 -0.07690011 -0.16384321 -0.07029722 0.27529186 0.11813427 0.10122098
0.04716425 0.046651497 0.27877808 -0.09481056 0.21058175 0.14468749 0.01621449 -0.21596056

_encoder.bn_in.weight f4 [32]
00000000: fbad 7f3f b4b7 5f3f 8942 6e3f ce0f 7e3f
00000010: 0a24 5e3f 03bc 683f 208c 673f c25e 6b3f
00000020: c3d6 6c3f 8bc5 6f3f 05d4 653f a2a8 853f
00000030: 6f86 6f3f c45f 813f 74aa 493f 55fd 7c3f
00000040: 352f 5f3f b455 603f e469 6c3f 4266 633f
00000050: 4585 753f 963f 553f 7431 6c3f 2d28 5f3f
00000060: d588 5b3f c87d 513f 670e 763f dab8 6d3f
00000070: e335 723f 8447 6c3f 6025 673f 34e4 643f
0.9987485 0.87389684 0.93070275 0.99242866 0.8677374 0.90911883 0.9044819 0.91941464
0.925152 0.936608 0.8977664 1.0442088 0.93564504 1.010735 0.78775716 0.98824054
0.8718141 0.8763077 0.92349076 0.8882791 0.9590648 0.8330015 0.9226296 0.8717068
0.85755664 0.8183255 0.96115726 0.92860186 0.94613475 0.92296624 0.90291405 0.8941071

_encoder.bn_in.bias f4 [32]
00000000: d2dc f2bd e604 21be 7c2a 44be 00ec 63bd
00000010: 62c3 2fbe 92b8 6ebd 9801 91bd 8086 26be
00000020: ec0e 75bd 04e8 c4bc 4cf5 01be f596 1abd
00000030: 697c ce3b 2e3b b43c 2e69 b3bd 2d10 adbd
00000040: 1115 d8bd 246d 2abe 6703 bfbd 7696 80bd
00000050: 037d 02bd 9b62 f8bd 7538 74bd 3f14 6dbc
00000060: c211 50bd bce9 c13c a9f9 c0bd ce7f b0bb
00000070: 2ce1 b5bd 9750 88bd 2475 9cbc 5941 f1bd
-0.118585244 -0.15724525 -0.19156832 -0.05564499 -0.17164376 -0.05828149 -0.07080382 -0.16262245
-0.059828684 -0.024036415 -0.1269123 -0.03774162 0.006301452 0.022000875 -0.08760296 -0.08450351
-0.10550893 -0.16643196 -0.09326821 -0.06278698 -0.0318575 -0.121281825 -0.059624154 -0.014470159
-0.050798185 0.023671024 -0.09422619 -0.0053863293 -0.08880839 -0.06655996 -0.019098826 -0.11780042

_encoder.bn_in.running_mean f4 [32]
00000000: 4f45 4c3d bc96 ef3d 456b 9e3e 23da 51bd
00000010: 95fe dabd 200f bc3d 815e bcbc ea36 183d
00000020: db37 183e ea13 86be fa74 e0bb 2e00 7dbe
00000030: 3ebd 4e3e e05e 933e 4995 343e 3e49 27be
00000040: 4cfe 883e 5af8 393e 29d5 acbd f486 d3bd
00000050: 62f5 38bd 91e3 923e 4faa d33d 815f 893d
00000060: 794f a73c 0666 f93c 61d6 8f3e 2e2e e2bd
00000070: 2da8 603e 2097 453e 9e5b 3a3d 10ca 42be
0.049870785 0.11698672 0.30941215 -0.051233422 -0.10693089 0.09182572 -0.022994282 0.037161745
0.14865057 -0.26187068 -0.006849882 -0.247071 0.20189378 0.2878332 0.17635073 -0.16336533
0.26756513 0.18161145 -0.084390946 -0.10328475 -0.04515589 0.28689244 0.10335218 0.06707669
0.020423638 0.030444156 0.28093246 -0.11043964 0.21939154 0.19295931 0.04549753 -0.19022393

_encoder.bn_in.running_var f4 [32]
00000000: b3aa 9e3d 89ef d83d fc3d 693d 674e e83d
00000010: 4d18 c03d bbaa 043e 9470 fd3d 17e0 af3d
00000020: 3176 fd3d b4f1 863d e914 863d 10a1 e53d
00000030: ceef b43d f52a bb3d 184d e13d 3346 e43d
00000040: 4af6 da3d e467 c23d 5508 bd3d 18b0 9b3d
00000050: b8e8 f13d 3e5b f33d 0d29 be3d 9cb8 b83d
00000060: f917 ba3d 4a9f c03d a281 df3d 8373 e53d
00000070: fe80 df3d 6aae ae3d 5f52 963d 166c e53d
0.07747402 0.10592563 0.05694388 0.11343079 0.09379635 0.12955754 0.12374988 0.085876636
0.12376059 0.0658907 0.06546957 0.11212361 0.088348016 0.09139053 0.110010326 0.11146202
0.10691507 0.09492472 0.09230105 0.076019466 0.11811966 0.118826374 0.092851736 0.090195864
0.09086604 0.09405382 0.10913397 0.11203673 0.10913275 0.085293606 0.0733993 0.112022564

_encoder.res_tower.0.conv1.weight f4 [32, 32, 3, 3]
00000000: cd77 9cbc 2a24 093d 4d8e c8bd 3d84 a3bd
00000010: be1e eb3d 475c fd3d ab4b 29bd c908 8c3c
00000020: 5b0d d03d 0f4d f4bd b99c 2d3d 85d6 d53c
00000030: eb5f 93bd f64d fd3a d0f4 ff3c 9dd4 88bc
00000040: aca7 8a3d 977c a2bd bfe4 48bd f820 393e
00000050: 09fe 5d3e 5f6b 8d3d d2ab 093e b592 9d3d
00000060: c435 82bd 4702 06be 5889 eb3d aa8a e53d
00000070: acd4 92bd e9e9 fc3c 50b4 623d c57f d93d
00000080: 1d85 e53d 6295 de3d 5084 05be 4b68 91bc
00000090: fe9e 39bd bc72 15be e8b7 84bc 634a 8fbd
000000a0: 1701 4fbc cb80 0b3b c2bf 8a3d 3437 b6bd
000000b0: fa26 53bd 7555 b23d bc4d 503c b09e c03c
000000c0: 9f27 123c 7efc 2d3e eebb 073d b2ad 9abd
000000d0: 135b 193e 544c 17bd 9602 d1bd c5d3 203d
000000e0: 3e7e 093d 40ba 393e bdd2 b4bb 2e2d f93d
000000f0: 5b93 bdbd 06e5 063d 79ca b33d a1b3 babd
00000100: 7e84 713b 1170 9c3d c7a9 b13b 8209 aebd
00000110: d1c6 533c dc97 3f3d 8a27 723d ac51 74bd
00000120: 426b f0bc d879 2d3e 5367 103d 3ede 85bd
00000130: 20cf 69bd b04c 4ebc cf71 1e3d 4bb3 f0bd
00000140: 5d2a edbd f3fa 39bd 003e 813d 33d2 b1bb
00000150: 09dd ef3c 60ba 443d 5aa4 e4bd bd96 da3c
00000160: 156a 6ebd 4118 12be cd20 523d 1c89 f13d
00000170: 7fa7 d53d 8c62 0a3d 4874 ce3d 4767 cc3b
00000180: 1e7c ce39 6fd3 a8bc 9829 d93d e072 36bb
00000190: ccd9 f73c 8f75 f93d 2456 57bd 872e f63d
000001a0: b1f7 91ba c343 92bd e10e cdb9 58fd fe3d
000001b0: fe01 babd 6dc1 a7bd 2322 efbd 5636 8f3c
000001c0: e634 c8bd c7f5 1d3e 5d41 92bd f3c4 cb3d
000001d0: b83d 93bd 540c f6bd 79df 553d 4685 753d
000001e0: 7a88 d5bd d036 3dbe 61f2 1cbd 5eba e4bd
000001f0: 5812 e53d f640 1bbd cfc0 b6bd de49 cbbc
00000200: b459 bdbd d4b9 6b3c d9e1 433e e087 38be
00000210: fe65 1f3d 3e3d 3e3d 8b97 1ebd 53bd c8bd
00000220: 2592 babd 0af9 5cbd e829 553e 5694 89bd
00000230: ef58 39bc cb79 523e 4882 263e 4499 033e
00000240: 29bc b43d 2471 d13d f726 ebbd 5ba2 5e3d
00000250: cb96 f73c 1a7e 053e c4c1 e2bc 67ed 89bd
00000260: f479 fcbd 24f5 8cbd fd56 bf3d 4078 963a
00000270: 609f 833c df35 e63c 4047 b5bd 2658 dcbd
00000280: 47b3 fdbd 0c33 6ebd d121 183d d8c0 f9bd
00000290: 02d4 c13d b9b2 10bd f849 093e 70cd 24bd
000002a0: 483e 1b3d 0b13 1e3d 50c4 123e 634e 213c
000002b0: db49 813c c4e0 80bc ac6c e3bd bc09 f93c
000002c0: f3aa 2a3d 5846 a0bd a0e9 423d 7317 9abd
000002d0: 4407 ed3c a5b5 d3bc 8a59 e03d 5b53 b7bd
000002e0: 92c7 35bd e74c ffbd 51db 12be fdf8 2fbc
000002f0: 5f63 a7bd 49dc c43d e377 ad3c 311b 173d
00000300: dc49 bfbc 420b 27bd 9b71 df3b f041 53bd
00000310: 4b83 483d 4352 003e bf9f 263e 7876 13be
00000320: a9fe 133e 28d0 bd3d b918 fcbd 137c 813d
00000330: a0d3 a93a 7f62 91bd 1886 0a3e 94c3 263d
00000340: 8dd0 28be 572d 5bbc 2a00 b63d 0fb1 c93d
00000350: 5435 24bd 66fa c4bd 71a7 863d 1a49 32be
00000360: 7a8e 7a3b bdd9 f03d ecb4 cbbd ba02 cd3d
00000370: 2fa2 cfbd bef5 583d 4726 94bc 3d7f e83c
00000380: 29a7 8eb9 f27c 893d 18d5 fe3b 0048 54be
00000390: 82bc 39bd 36dd 20bd 8e33 b2bc d240 a7bd
000003a0: 44ac 32be ccac 153e b3ed 823a ff4b 9b3d
000003b0: 0374 aabb 0069 303b 74da 0b3e 7580 ee3d
000003c0: f7c9 3abd 2ab8 263c e353 febd 44e1 1c3e
000003d0: 2736 eb3c cfca 9d3d c6ec 84bd 671b c23d
000003e0: 62e6 c03c 0237 7b3c 3e83 513c 6a22 7e3c
000003f0: ac80 10be d3bf 73bd 970f 49bc 0666 f23d
-0.019100094 0.033481754 -0.09792767 -0.07984207 0.11480473 0.12371116 -0.04133193 0.017094033
0.10158797 -0.1192876 0.04238579 0.026103267 -0.07196029 0.0019325602 0.031244665 -0.016702944
0.06770262 -0.0793392 -0.049046274 0.18078983 0.21678938 0.06905245 0.1344445 0.07693998
-0.06357911 -0.13086806 0.115008056 0.11208089 -0.0716947 0.030873256 0.05534774 0.10620073
0.1120703 0.10868336 -0.13038754 -0.017749926 -0.045317642 -0.14594549 -0.016200975 -0.0699661
-0.012634537 0.0021286483 0.06774856 -0.08897248 -0.051550843 0.08707706 0.012713846 0.023513168
0.008920579 0.1699085 0.033138208 -0.07552661 0.14976148 -0.036938027 -0.10205571 0.03926446
0.03356766 0.18137455 -0.005518286 0.121668205 -0.092566215 0.032933258 0.08778853 -0.09116293
0.0036852653 0.076385625 0.0054218504 -0.08497907 0.0129258195 0.046775684 0.05911974 -0.0596482
-0.02934802 0.16941011 0.035254788 -0.0653653 -0.057082295 -0.012591526 0.038682755 -0.117529474
-0.11580346 -0.04540534 0.06310654 -0.005426669 0.029280202 0.048029304 -0.1116416 0.026683206
-0.058206636 -0.14267065 0.051300813 0.1179373 0.10432338 0.033785388 0.10080773 0.0062378976
0.00039383856 -0.020608632 0.106036365 -0.0027839467 0.03025522 0.12180626 -0.052572384 0.12020593
-0.001113644 -0.07141831 -0.00039111733 0.12450665 -0.09082411 -0.0819119 -0.11676433 0.017481964
-0.097757146 0.15425788 -0.07141373 0.099496745 -0.07189506 -0.1201407 0.052215073 0.059941553
-0.104264215 -0.1847794 -0.038317088 -0.11168359 0.111851394 -0.03790375 -0.08923494 -0.024815496
-0.09245625 0.014387567 0.19129123 -0.18020582 0.038915627 0.046445124 -0.03871874 -0.09801736
-0.09109906 -0.05394844 0.20816767 -0.06717746 -0.011312707 0.20554273 0.16260636 0.12851435
0.08824951 0.10226658 -0.11482041 0.054354053 0.03022327 0.13036385 -0.027680285 -0.06734734
-0.12327948 -0.06882694 0.093427636 0.0011479929 0.016067207 0.02810186 -0.088514805 -0.107590005
-0.1238771 -0.05815415 0.037141625 -0.12194985 0.094642654 -0.035326693 0.13407123 -0.040234983
0.037901193 0.03859238 0.143327 0.009845349 0.015782287 -0.015732177 -0.11104712 0.03040015
0.041666936 -0.07825917 0.047586083 -0.07524004 0.028934129 -0.02584345 0.10954578 -0.08951446
-0.04437978 -0.1246584 -0.14341475 -0.010740516 -0.081732504 0.096123286 0.02117533 0.036891166
-0.023350649 -0.04078222 0.0068189627 -0.051576555 0.048953336 0.1253138 0.16271876 -0.14400661
0.14452614 0.09268218 -0.12309403 0.063224934 0.0012956746 -0.07098865 0.13527715 0.04071386
-0.16485806 -0.013377509 0.0888675 0.09848224 -0.04008992 -0.09618072 0.06574906 -0.17410699
0.0038231895 0.1176028 -0.099466175 0.10010286 -0.10138356 0.052968733 -0.018084658 0.028380984
-0.00027208895 0.067132846 0.0077768676 -0.20730591 -0.04534579 -0.039273463 -0.021753099 -0.0816666
-0.17448527 0.14616698 0.0009989053 0.075828545 -0.005201818 0.0026918054 0.13657552 0.11645595
-0.045602765 0.010175744 -0.12418344 0.15320307 0.028712345 0.07704698 -0.064904734 0.09477883
0.023547355 0.015332939 0.012787638 0.015511135 -0.14111584 -0.05950911 -0.012271783 0.11835866

_encoder.res_tower.0.conv1.bias f4 [32]
00000000: e5b6 0abd 0fb9 23bd 5527 3dbc 9713 e23c
00000010: 3e3b 74bc 7884 58bd c00c 653c eb9f 24bd
00000020: 6285 483d a793 e2ba 1f20 bb3c 92b3 e53a
00000030: 6650 92bc 215c acbc 6edb ff3b a21e 473b
00000040: 86da 723a 7e51 d23c 1c5c 943c 8f48 38bd
00000050: 1c0b 21bb b593 e73b e43b 19bd ab17 59bd
00000060: 2586 033c 59be 0ebc 94a9 8e3c c137 3f3c
00000070: 68ae afbc d23f 873c 4d21 213c 94bd cd3c
-0.033865828 -0.039971408 -0.011545022 0.027597232 -0.014906703 -0.052860707 0.013980091 -0.040191572
0.04895533 -0.0017286435 0.022842465 0.001752483 -0.017860603 -0.021040024 0.0078081405 0.0030383249
0.000926413 0.025673624 0.018110327 -0.044991072 -0.0024573272 0.0070671686 -0.03741063 -0.053001087
0.008027588 -0.008712375 0.017414846 0.011671008 -0.021445468 0.016509924 0.0098346 0.025114812

_encoder.res_tower.0.bn1.weight f4 [32]
00000000: 4654 613f b231 693f 8b5f 5e3f 0ff2 613f
00000010: 7996 663f a4e4 523f b926 623f 879b 493f
00000020: 5208 6f3f babe 693f 9f85 583f 5654 6c3f
00000030: 2cef 7c3f 65b7 4d3f b46d 6c3f b498 693f
00000040: b46f 5c3f eec3 6c3f 60f0 583f 8c38 753f
00000050: 997d 573f 97d8 643f a6b8 793f 64c6 633f
00000060: f7f3 693f 46f6 803f 43df 673f c56e 613f
00000070: 631c 793f 5b41 713f 3266 623f 321c 573f
0.88019216 0.91091454 0.86864537 0.8825998 0.90073353 0.8238013 0.88340336 0.7875294
0.9337207 0.9130665 0.8457889 0.92316186 0.9880245 0.8035796 0.92354894 0.9124863
0.86107945 0.92486465 0.84741783 0.9578941 0.8417602 0.8939299 0.97547376 0.88974595
0.91387886 1.0075157 0.90575045 0.88059646 0.9730894 0.9424035 0.8843719 0.840274

_encoder.res_tower.0.bn1.bias f4 [32]
00000000: ad0f 16be 5f83 f7bd b61b 92be 4136 28be
00000010: 5db6 24be d240 15be 8d51 e0bc 46ae c6bc
00000020: 20a0 34bd da27 d6bd d526 76bd 32c8 37be
00000030: a217 40be 57fb bfbd 7133 5dbe 6455 f0bd
00000040: 4c9b 74be 9249 70be 63dc 21bc ef58 b1bd
00000050: e685 0bbe b9b0 2dbe 766b e8bd 0776 05be
00000060: b03b cdbd a905 c4bd 9ff9 a9bd fef7 0fbe
00000070: 2823 c7bd 8348 e5bd e72c 9ebd 6862 3bbe
-0.14654417 -0.12085604 -0.28536767 -0.16426946 -0.16085191 -0.14575508 -0.027382636 -0.024253022
-0.04409802 -0.1045682 -0.060095627 -0.17947462 -0.18759015 -0.09374111 -0.21601655 -0.11735037
-0.23887366 -0.23465565 -0.009879204 -0.08659541 -0.13625297 -0.16961946 -0.113486215 -0.13033305
-0.1002115 -0.09571392 -0.082995646 -0.14059445 -0.097235024 -0.11195471 -0.07723408 -0.18299258

_encoder.res_tower.0.bn1.running_mean f4 [32]
00000000: 98eb 3a3f 5ac9 38be 421d bf3f 025b 153d
00000010: d5ae dabe 58da 7e3d c603 2bbf 22ae fcbc
00000020: c4bf 1fbf 0f2b 89be 3e3d 293d 1a9d e5be
00000030: baca 8dbf 4939 63be d4a4 42be 62ae babe
00000040: da56 d43f 1cbf dabe 5773 d0bd aef1 6dbf
00000050: 7d7d da3e fb84 0bbe e17b efbe 0963 833f
00000060: 5f84 2cbf 784e 03bf 9c4d b53e 929c 2e3f
00000070: ef5f 89be a0d7 81bf 9df8 a5be a17d 4c3d
0.7301574 -0.1804556 1.4930804 0.036463745 -0.4271151 0.062219948 -0.6680263 -0.030844752
-0.62401986 -0.26790664 0.04131817 -0.4484642 -1.1077492 -0.22189821 -0.1900819 -0.3646117
1.6589005 -0.4272393 -0.10178249 -0.929469 0.42673865 -0.13624947 -0.467742 1.0264598
-0.6738948 -0.5129161 0.35410774 0.6820766 -0.26831004 -1.0143929 -0.3241624 0.049924497

_encoder.res_tower.0.bn1.running_var f4 [32]
00000000: 893c 1740 b650 fb3f aa1d 2e40 95bc bd3f
00000010: b830 b43f c5d9 d43f a299 d33f 7b0d 1340
00000020: 791d f23f 3157 d33f 67cc d33f aa57 c23f
00000030: 3013 1440 e5c7 cc3f b414 f03f 1f14 ed3f
00000040: 48da 4140 c708 2040 aeca 1540 8b16 dd3f
00000050: 38e9 d73f 20c7 d63f 4c92 f23f 52a1 f93f
00000060: bcdf bc3f 31c1 0240 5b0e d63f e787 be3f
00000070: e41b f63f ec73 c83f a221 c23f eef4 9f3f
2.3630698 1.9634006 2.7205606 1.4823176 1.4077368 1.6628958 1.653126 2.2976978
1.8915244 1.6510984 1.6546754 1.5183003 2.313671 1.5998503 1.8756318 1.8521765
3.0289478 2.5005357 2.3404956 1.7272505 1.6868048 1.6779518 1.8950896 1.9502356
1.4755778 2.0430415 1.6723131 1.4885224 1.9227262 1.5660377 1.5166514 1.2496622

_encoder.res_tower.0.conv2.weight f4 [32, 32, 3, 3]
00000000: 04d0 d03d 1a34 19be 8859 b03c 75d7 6e3d
00000010: b71e cc3c cf8d c13d 6a1b fdbd 9889 2c3d
00000020: 2772 e43c b324 35bd a2ee 59bc ee5f c43d
00000030: 1895 d1bc 0748 6dbd 2776 a73d c228 b43d
00000040: 471f 82bc 9936 1ebd 4ac8 1c3c 1c61 163d
00000050: ad0b a9bc 6b69 fd3b db02 983a 568a 0e3e
00000060: 8916 c23b 4fbc a3bc 640d e43c 0307 d4bd
00000070: 71b0 95bd 8fc3 9a3c 9a45 42bd e82d 19bd
00000080: e884 963b b663 35bd 61b0 b63d b5c6 42bc
00000090: d29b 613d 7eb5 c73b 6242 88bc 569e b53d
000000a0: 4e2c d1bd 9b89 c73d b888 1abd c821 b6ba
000000b0: 7518 3d3d e9f1 63bd f721 95bd d191 75bd
000000c0: c380 d53b 90ed 65bd ed6a 9dbd a0d7 853d
000000d0: e117 283d 3551 0c3d dd9a 223e 10b4 aebd
000000e0: 5add ae3d 2ccd 403c 5e34 12be 5a1a 523d
000000f0: 03b2 6fbd 7443 273d f869 ec3d d727 963d
00000100: 7572 01be 742b 48bc 7e29 9a3c cc87 733d
00000110: a91b 87bb 96a0 08be 2376 2cbc 005f bcbc
00000120: 4184 72bc 343f d73c d4c9 943d 2e81 5f3d
00000130: c431 ee3d da8f 043c c976 0dbd b991 cebd
00000140: 0f98 853d 9f1f 2c3c 020b d0bd 8c96 a7bd
00000150: c473 9f3b 1dab 803d a7ec bebc 0fba 04bd
00000160: caa0 acbd 5529 9fbd 2e3e 9dbb 6059 4dbd
00000170: 5109 b83d 6c65 8abd c5ac fe3c 5f0d 22bc
00000180: fdbd a53d 42c3 01be 7b1c adbd 7874 473d
00000190: 5f0e a3b8 d100 7ebd 3dcd b5bd ab34 cc3c
000001a0: 3f7c c43d e24a a7bd b840 cc3d ff4e 953d
000001b0: dff0 243d 0327 6fbd 6e08 0d3e 1c79 70bd
000001c0: 2543 43bd 7a6a 193e 54e2 be3d fcd0 94bc
000001d0: 95a6 333d 0260 093d 0be3 a73d 9f78 483d
000001e0: b89e b93d 2bd0 823c d5ef 8ebd 6220 93bd
000001f0: ced4 d3bc 1b59 44bb 5ba7 063d c566 a0bd
00000200: d674 86bc 218a bebc b2d0 3dbe 2a15 70bc
00000210: 3f19 913d 8f8a 5a3c 23de 08bb 078c c63c
00000220: 5307 e33d 5b3d 50bd 10dd 0bbb 7a64 263d
00000230: 4497 863c 2a60 e3bd b582 cebd b7cd 003d
00000240: e43a 60bc f034 febc 7687 dfbb bf09 2e3d
00000250: bb7d b03c 70a6 453d c3c6 49bd aa87 4ebd
00000260: 5f74 5fbe aba8 e63d 48ec 17ba d2ea 1ebd
00000270: f8fd a3bc 84a2 f1bd 1f5e 0a3e 462c 243e
00000280: 5283 acbc 3c31 bc3d bfa9 34bd 48d0 813d
00000290: dc2b adbd 1732 133d aea4 ba3c a336 1ebe
000002a0: 0c4d e23c 4be5 8bbd 711a ad3d 601a b73d
000002b0: 0a07 42bd d333 aa3c 1f49 db3d cec5 8fbc
000002c0: 586f 133d 70b2 53bd 474d 043d 68e6 613d
000002d0: 3e9e a0bd f401 0e3d 5e26 e23c 2386 98bc
000002e0: ff48 40bd 7c7f 2abe 6adf 1cbd 551d 0fbd
000002f0: 1572 14bc 50ea babd 4eeb d43c bdeb 823d
00000300: 6047 83bd 56bb 9f3d c6bd 463c aee2 e63c
00000310: 86aa debd d5de 4bbd 59ca 9e3d 6126 a13b
00000320: dd97 f03d 2313 a33d cfcc 24be 8711 073e
00000330: 8566 30be 9ad7 c93c 4c60 2a3d a7b3 b8bd
00000340: b149 dbbd 9936 d93d 609d e7bd 244b 82bd
00000350: 1908 3abe 62af 683d f653 ad3d f054 20bd
00000360: 180d d93d e8cc a9bc 4b6f 3fbc f811 fe3c
00000370: d474 c2bd fd2c e8bb a00f 16bd 99d1 3fbd
00000380: 45c9 f2bc 0847 a53d 730c b43d 9ba1 5a3c
00000390: 78b3 af3d 01f7 283e 5d0e c7bc a760 80bd
000003a0: f83f 9bbd c575 133e febb d13d a4a3 2f3c
000003b0: a33c 77bc cb62 0abd b801 73bd ea82 d83d
000003c0: fd6e 0b3e b97a 99bd 4619 6c3c d36f 08be
000003d0: 0e33 1bbd ffc3 bf3d b7ae b4bc 9dd3 973d
000003e0: 7d6f edbc a415 06be 737b 653b 69c1 563d
000003f0: 8384 d3bd 6f7f 323b 9784 aabc c01f 703d
0.10195926 -0.14961281 0.021527067 0.058310945 0.02491699 0.09450876 -0.123587444 0.042123407
0.027886463 -0.044224452 -0.013301523 0.0958861 -0.025583789 -0.05793002 0.08176833 0.087968364
-0.015884055 -0.038626287 0.009569237 0.036713704 -0.02063545 0.007733514 0.0011597531 0.13919958
0.0059230966 -0.019987253 0.027838416 -0.103529 -0.07309044 0.018892078 -0.04742966 -0.037397295
0.0045934804 -0.044284545 0.0892036 -0.011888196 0.055080242 0.0060946336 -0.016633216 0.08868091
-0.102135286 0.09743043 -0.03772804 -0.0013895566 0.046165902 -0.055650625 -0.07281869 -0.059953514
0.0065155937 -0.05613476 -0.0768641 0.06535268 0.041038398 0.034257133 0.15879388 -0.08530438
0.08538313 0.011767667 -0.14277789 0.051294662 -0.058519375 0.040835813 0.115436494 0.073318176
-0.12641318 -0.012217391 0.018818613 0.059455678 -0.0041231704 -0.13342509 -0.010526213 -0.022994518
-0.01480204 0.026275255 0.07265058 0.054566555 0.11630586 0.0080909375 -0.03453711 -0.10086388
0.065231435 0.010505586 -0.101583496 -0.081830114 0.0048660953 0.06282637 -0.023306204 -0.032404
-0.084291056 -0.07771555 -0.004798672 -0.050134063 0.08986152 -0.06757626 0.031088242 -0.009890883
0.08092878 -0.12672141 -0.08452698 0.048695058 -7.7751225e-05 -0.062012497 -0.08877037 0.024927458
0.095940106 -0.0816858 0.099732816 0.07290458 0.040268775 -0.058386814 0.13772747 -0.05870925
-0.047671456 0.14982024 0.093205124 -0.018166058 0.043860037 0.033538826 0.08197602 0.04894316
0.09063476 0.015968403 -0.06979338 -0.07183911 -0.02585831 -0.0029960338 0.032874446 -0.07832102
-0.016413134 -0.023259224 -0.18536642 -0.014653483 0.070848934 0.013338699 -0.0020884357 0.024236692
0.11085381 -0.050839763 -0.002134148 0.040623166 0.016429551 -0.11102326 -0.10083524 0.031446185
-0.013685916 -0.031031102 -0.006821568 0.042489763 0.021544328 0.04825443 -0.04926182 -0.050422348
-0.21821736 0.112626396 -0.00057954015 -0.03879816 -0.020018563 -0.117985755 0.13512467 0.16032514
-0.021058712 0.09189078 -0.044107195 0.063385546 -0.08455631 0.03593644 0.022783604 -0.1545053
0.02762463 -0.068308435 0.08452309 0.089405775 -0.047369994 0.020776665 0.10707306 -0.017550375
0.035994858 -0.051683843 0.03230026 0.055151373 -0.07842682 0.03466983 0.027606186 -0.018618649
-0.046944614 -0.16650194 -0.038299 -0.034940083 -0.009060402 -0.09126723 0.025991108 0.0639262
-0.06410098 0.07799403 0.012130206 0.028184261 -0.108723685 -0.049773056 0.077534385 0.004917905
0.117477156 0.079626344 -0.16093753 0.1319028 -0.17226608 0.02463894 0.041595742 -0.09018641
-0.10707415 0.10606117 -0.11309314 -0.06361988 -0.18167152 0.056807883 0.0846328 -0.039143503
0.105982006 -0.02072759 -0.011684249 0.031014428 -0.094949394 -0.007085441 -0.036635995 -0.046830747
-0.029636988 0.08070189 0.08791437 0.013344194 0.08579153 0.16500475 -0.024298841 -0.06268435
-0.075805604 0.14400394 0.10240935 0.010720167 -0.0150901405 -0.033785623 -0.05932781 0.10571845
0.13616557 -0.074941106 0.0144103225 -0.13323908 -0.037890486 0.09363555 -0.022055967 0.07413409
-0.028983826 -0.13094193 0.0035016208 0.052430544 -0.10328009 0.00272366 -0.020815177 0.05862403

_encoder.res_tower.0.conv2.bias f4 [32]
00000000: 5f0f 05bc cbd7 8e3c ce12 22bd ca7b 93bc
00000010: 97bb f03b ce6a 2f3d a696 393d f5de 253d
00000020: 0fda 20bd a6b2 c13c 2c59 dbbc eb1d e3bc
00000030: a16d 0c3c 9f19 4c3c f3dd 9bbc 2027 34bb
00000040: 7c14 a03a bcb4 1bbd 6d85 c5bc 0133 2b3d
00000050: b410 06bb 9a3b 323d 3af1 72bc 7daa 073d
00000060: e740 433c 777c 95bc 094a 57bd d141 1d3d
00000070: 431c 9dbc f634 0a3b 93ba 543d 90e1 2d3d
-0.008121341 0.017436882 -0.039568715 -0.018003363 0.007346581 0.042826466 0.045309685 0.04049583
-0.039270457 0.023644757 -0.026775919 -0.027724227 0.008571059 0.01245728 -0.019026732 -0.002748914
0.0012213136 -0.03801416 -0.024111474 0.041796688 -0.0020456733 0.04351387 -0.014828021 0.033121575
0.011917329 -0.018247826 -0.05256084 0.038392846 -0.019178515 0.0021088696 0.051935744 0.04245144

_encoder.res_tower.0.bn2.weight f4 [32]
00000000: 4c6b 673f 5ca3 633f de7b 753f 84a4 503f
00000010: 32d7 613f 81d2 663f 5888 6d3f 81e0 803f
00000020: 6956 4c3f d85b 663f c988 673f 21ee 5a3f
00000030: 7063 6a3f f1ff 573f 1ce1 563f 0f7c 583f
00000040: be0c 753f a05e 5b3f a514 563f 0755 533f
00000050: ade9 6b3f a06b 673f 5da2 663f db02 5c3f
00000060: efb3 5a3f 0f85 633f 7492 713f 4810 553f
00000070: d9c7 553f 2274 5a3f e898 6b3f e825 783f
0.903981 0.8892114 0.9589213 0.8150103 0.88218987 0.90164953 0.9278617 1.0068513
0.7981935 0.8998389 0.9044309 0.85519606 0.9155798 0.8437491 0.8393724 0.845643
0.9572257 0.8569126 0.8362525 0.82551616 0.92153436 0.903986 0.90091497 0.8594186
0.85430807 0.88874906 0.94364095 0.8322797 0.8350807 0.85333455 0.9203019 0.9693284

_encoder.res_tower.0.bn2.bias f4 [32]
00000000: 496e 8bbc 3a14 5abd bd0f 36bd 453d aebd
00000010: cbeb 61ba 17a6 88bd 5cd2 07be 1c6c 97bd
00000020: c1b6 bdbd a24f 21be 742f 80be c135 fcbc
00000030: befe 38be 974b 94bd 3f0e a1bd f49a d8bd
00000040: 1dcf 48bd 5ca3 2dbd aa16 10be 5145 c9bd
00000050: 37fa 34be 4122 f1bd 2f15 1bbe ebde 13be
00000060: 8b56 29be 20ba b2bd 7cda a9bd 1cbb d8bd
00000070: 4127 b33c ea85 0dbe 2405 d0bd 0732 d2bd
-0.017020361 -0.053241946 -0.044448603 -0.0850778 -0.0008618205 -0.06672304 -0.1326384 -0.07393667
-0.09263373 -0.15753034 -0.25036204 -0.03078735 -0.18065926 -0.0724098 -0.07864045 -0.1057643
-0.049025644 -0.04239212 -0.14071146 -0.09827674 -0.17673574 -0.117741115 -0.151448 -0.14440505
-0.1653692 -0.08726907 -0.08293626 -0.10582563 0.021869304 -0.13820615 -0.101572305 -0.10263448

_encoder.res_tower.0.bn2.running_mean f4 [32]
00000000: 19a0 ebbd 51db bc3e fa50 e6bc 16ca e03d
00000010: e598 f93d 9b18 98be 7ab8 323e 3d28 4cbd
00000020: 2e08 1dbe bf26 bfbe c045 183e d892 6abe
00000030: 5355 c7be 0b68 1bbf 3bad 7d3b 2336 7dbe
00000040: 8c26 663e f145 3b3d f0c4 353d 5c6e 093d
00000050: 7b7b 88bd 58bc 32be 80c8 873e d343 df3d
00000060: dc3e 343e 9f9b 04bd 42c2 f1be 1c29 11bf
00000070: bdae 47be b95e 253e 3010 72be 3f83 50be
-0.115051456 0.36886075 -0.028114785 0.10976045 0.121873654 -0.29706272 0.17453185 -0.04984306
-0.15335152 -0.37334248 0.14870358 -0.22907579 -0.38932285 -0.6070563 0.003870799 -0.24727683
0.22475642 0.045721 0.044377267 0.033552513 -0.06664177 -0.1745466 0.26520157 0.10901608
0.17602104 -0.032374974 -0.4721852 -0.5670335 -0.19500251 0.16149415 -0.23638988 -0.20362566

_encoder.res_tower.0.bn2.running_var f4 [32]
00000000: a9f2 e53e e8ad 0a3f 97e6 d13e 3332 083f
00000010: e858 dc3e 6189 b23e f94b bb3e ac10 e33e
00000020: 5754 c23e 01ec 983e f3ac de3e 0662 283f
00000030: 28aa ff3e 0b85 1d3f a60d a13e 4a4d d83e
00000040: 983d ea3e b78b df3e 8fe4 d93e 27ad c23e
00000050: 4c7e 9f3e a07b 983e bc0a 083f a13d e43e
00000060: f4e4 b63e 1ca3 b83e ef93 e03e 3978 e53e
00000070: be73 113f 6018 a03e 0653 a33e cd56 cf3e
0.44911698 0.5417161 0.4099624 0.532016 0.4303658 0.34870437 0.365814 0.44348657
0.3795497 0.29867557 0.43491325 0.6577457 0.49934506 0.6153113 0.31455725 0.42246467
0.45750117 0.4366128 0.4255719 0.3802273 0.31151044 0.29781818 0.5314138 0.4457827
0.35721552 0.36061943 0.43862864 0.44818285 0.56817234 0.31268597 0.3189928 0.4049591

_encoder.res_tower.1.conv1.weight f4 [32, 32, 3, 3]
00000000: cd77 9cbc 2a24 093d 4d8e c8bd 3d84 a3bd
00000010: be1e eb3d 475c fd3d ab4b 29bd c908 8c3c
00000020: 5b0d d03d 0f4d f4bd b99c 2d3d 85d6 d53c
00000030: eb5f 93bd f64d fd3a d0f4 ff3c 9dd4 88bc
00000040: aca7 8a3d 977c a2bd bfe4 48bd f820 393e
00000050: 09fe 5d3e 5f6b 8d3d d2ab 093e b592 9d3d
00000060: c435 82bd 4702 06be 5889 eb3d aa8a e53d
00000070: acd4 92bd e9e9 fc3c 50b4 623d c57f d93d
00000080: 1d85 e53d 6295 de3d 5084 05be 4b68 91bc
00000090: fe9e 39bd bc72 15be e8b7 84bc 634a 8fbd
000000a0: 1701 4fbc cb80 0b3b c2bf 8a3d 3437 b6bd
000000b0: fa26 53bd 7555 b23d bc4d 503c b09e c03c
000000c0: 9f27 123c 7efc 2d3e eebb 073d b2ad 9abd
000000d0: 135b 193e 544c 17bd 9602 d1bd c5d3 203d
000000e0: 3e7e 093d 40ba 393e bdd2 b4bb 2e2d f93d
000000f0: 5b93 bdbd 06e5 063d 79ca b33d a1b3 babd
00000100: 7e84 713b 1170 9c3d c7a9 b13b 8209 aebd
00000110: d1c6 533c dc97 3f3d 8a27 723d ac51 74bd
00000120: 426b f0bc d879 2d3e 5367 103d 3ede 85bd
00000130: 20cf 69bd b04c 4ebc cf71 1e3d 4bb3 f0bd
00000140: 5d2a edbd f3fa 39bd 003e 813d 33d2 b1bb
00000150: 09dd ef3c 60ba 443d 5aa4 e4bd bd96 da3c
00000160: 156a 6ebd 4118 12be cd20 523d 1c89 f13d
00000170: 7fa7 d53d 8c62 0a3d 4874 ce3d 4767 cc3b
00000180: 1e7c ce39 6fd3 a8bc 9829 d93d e072 36bb
00000190: ccd9 f73c 8f75 f93d 2456 57bd 872e f63d
000001a0: b1f7 91ba c343 92bd e10e cdb9 58fd fe3d
000001b0: fe01 babd 6dc1 a7bd 2322 efbd 5636 8f3c
000001c0: e634 c8bd c7f5 1d3e 5d41 92bd f3c4 cb3d
000001d0: b83d 93bd 540c f6bd 79df 553d 4685 753d
000001e0: 7a88 d5bd d036 3dbe 61f2 1cbd 5eba e4bd
000001f0: 5812 e53d f640 1bbd cfc0 b6bd de49 cbbc
00000200: b459 bdbd d4b9 6b3c d9e1 433e e087 38be
00000210: fe65 1f3d 3e3d 3e3d 8b97 1ebd 53bd c8bd
00000220: 2592 babd 0af9 5cbd e829 553e 5694 89bd
00000230: ef58 39bc cb79 523e 4882 263e 4499 033e
00000240: 29bc b43d 2471 d13d f726 ebbd 5ba2 5e3d
00000250: cb96 f73c 1a7e 053e c4c1 e2bc 67ed 89bd
00000260: f479 fcbd 24f5 8cbd fd56 bf3d 4078 963a
00000270: 609f 833c df35 e63c 4047 b5bd 2658 dcbd
00000280: 47b3 fdbd 0c33 6ebd d121 183d d8c0 f9bd
00000290: 02d4 c13d b9b2 10bd f849 093e 70cd 24bd
000002a0: 483e 1b3d 0b13 1e3d 50c4 123e 634e 213c
000002b0: db49 813c c4e0 80bc ac6c e3bd bc09 f93c
000002c0: f3aa 2a3d 5846 a0bd a0e9 423d 7317 9abd
000002d0: 4407 ed3c a5b5 d3bc 8a59 e03d 5b53 b7bd
000002e0: 92c7 35bd e74c ffbd 51db 12be fdf8 2fbc
000002f0: 5f63 a7bd 49dc c43d e377 ad3c 311b 173d
00000300: dc49 bfbc 420b 27bd 9b71 df3b f041 53bd
00000310: 4b83 483d 4352 003e bf9f 263e 7876 13be
00000320: a9fe 133e 28d0 bd3d b918 fcbd 137c 813d
00000330: a0d3 a93a 7f62 91bd 1886 0a3e 94c3 263d
00000340: 8dd0 28be 572d 5bbc 2a00 b63d 0fb1 c93d
00000350: 5435 24bd 66fa c4bd 71a7 863d 1a49 32be
00000360: 7a8e 7a3b bdd9 f03d ecb4 cbbd ba02 cd3d
00000370: 2fa2 cfbd bef5 583d 4726 94bc 3d7f e83c
00000380: 29a7 8eb9 f27c 893d 18d5 fe3b 0048 54be
00000390: 82bc 39bd 36dd 20bd 8e33 b2bc d240 a7bd
000003a0: 44ac 32be ccac 153e b3ed 823a ff4b 9b3d
000003b0: 0374 aabb 0069 303b 74da 0b3e 7580 ee3d
000003c0: f7c9 3abd 2ab8 263c e353 febd 44e1 1c3e
000003d0: 2736 eb3c cfca 9d3d c6ec 84bd 671b c23d
000003e0: 62e6 c03c 0237 7b3c 3e83 513c 6a22 7e3c
000003f0: ac80 10be d3bf 73bd 970f 49bc 0666 f23d
-0.019100094 0.033481754 -0.09792767 -0.07984207 0.11480473 0.12371116 -0.04133193 0.017094033
0.10158797 -0.1192876 0.04238579 0.026103267 -0.07196029 0.0019325602 0.031244665 -0.016702944
0.06770262 -0.0793392 -0.049046274 0.18078983 0.21678938 0.06905245 0.1344445 0.07693998
-0.06357911 -0.13086806 0.115008056 0.11208089 -0.0716947 0.030873256 0.05534774 0.10620073
0.1120703 0.10868336 -0.13038754 -0.017749926 -0.045317642 -0.14594549 -0.016200975 -0.0699661
-0.012634537 0.0021286483 0.06774856 -0.08897248 -0.051550843 0.08707706 0.012713846 0.023513168
0.008920579 0.1699085 0.033138208 -0.07552661 0.14976148 -0.036938027 -0.10205571 0.03926446
0.03356766 0.18137455 -0.005518286 0.121668205 -0.092566215 0.032933258 0.08778853 -0.09116293
0.0036852653 0.076385625 0.0054218504 -0.08497907 0.0129258195 0.046775684 0.05911974 -0.0596482
-0.02934802 0.16941011 0.035254788 -0.0653653 -0.057082295 -0.012591526 0.038682755 -0.117529474
-0.11580346 -0.04540534 0.06310654 -0.005426669 0.029280202 0.048029304 -0.1116416 0.026683206
-0.058206636 -0.14267065 0.051300813 0.1179373 0.10432338 0.033785388 0.10080773 0.0062378976
0.00039383856 -0.020608632 0.106036365 -0.0027839467 0.03025522 0.12180626 -0.052572384 0.12020593
-0.001113644 -0.07141831 -0.00039111733 0.12450665 -0.09082411 -0.0819119 -0.11676433 0.017481964
-0.097757146 0.15425788 -0.07141373 0.099496745 -0.07189506 -0.1201407 0.052215073 0.059941553
-0.104264215 -0.1847794 -0.038317088 -0.11168359 0.111851394 -0.03790375 -0.08923494 -0.024815496
-0.09245625 0.014387567 0.19129123 -0.18020582 0.038915627 0.046445124 -0.03871874 -0.09801736
-0.09109906 -0.05394844 0.20816767 -0.06717746 -0.011312707 0.20554273 0.16260636 0.12851435
0.08824951 0.10226658 -0.11482041 0.054354053 0.03022327 0.13036385 -0.027680285 -0.06734734
-0.12327948 -0.06882694 0.093427636 0.0011479929 0.016067207 0.02810186 -0.088514805 -0.107590005
-0.1238771 -0.05815415 0.037141625 -0.12194985 0.094642654 -0.035326693 0.13407123 -0.040234983
0.037901193 0.03859238 0.143327 0.009845349 0.015782287 -0.015732177 -0.11104712 0.03040015
0.041666936 -0.07825917 0.047586083 -0.07524004 0.028934129 -0.02584345 0.10954578 -0.08951446
-0.04437978 -0.1246584 -0.14341475 -0.010740516 -0.081732504 0.096123286 0.02117533 0.036891166
-0.023350649 -0.04078222 0.0068189627 -0.051576555 0.048953336 0.1253138 0.16271876 -0.14400661
0.14452614 0.09268218 -0.12309403 0.063224934 0.0012956746 -0.07098865 0.13527715 0.04071386
-0.16485806 -0.013377509 0.0888675 0.09848224 -0.04008992 -0.09618072 0.06574906 -0.17410699
0.0038231895 0.1176028 -0.099466175 0.10010286 -0.10138356 0.052968733 -0.018084658 0.028380984
-0.00027208895 0.067132846 0.0077768676 -0.20730591 -0.04534579 -0.039273463 -0.021753099 -0.0816666
-0.17448527 0.14616698 0.0009989053 0.075828545 -0.005201818 0.0026918054 0.13657552 0.11645595
-0.045602765 0.010175744 -0.12418344 0.15320307 0.028712345 0.07704698 -0.064904734 0.09477883
0.023547355 0.015332939 0.012787638 0.015511135 -0.14111584 -0.05950911 -0.012271783 0.11835866

_encoder.res_tower.1.conv1.bias f4 [32]
00000000: e5b6 0abd 0fb9 23bd 5527 3dbc 9713 e23c
00000010: 3e3b 74bc 7884 58bd c00c 653c eb9f 24bd
00000020: 6285 483d a793 e2ba 1f20 bb3c 92b3 e53a
00000030: 6650 92bc 215c acbc 6edb ff3b a21e 473b
00000040: 86da 723a 7e51 d23c 1c5c 943c 8f48 38bd
00000050: 1c0b 21bb b593 e73b e43b 19bd ab17 59bd
00000060: 2586 033c 59be 0ebc 94a9 8e3c c137 3f3c
00000070: 68ae afbc d23f 873c 4d21 213c 94bd cd3c
-0.033865828 -0.039971408 -0.011545022 0.027597232 -0.014906703 -0.052860707 0.013980091 -0.040191572
0.04895533 -0.0017286435 0.022842465 0.001752483 -0.017860603 -0.021040024 0.0078081405 0.0030383249
0.000926413 0.025673624 0.018110327 -0.044991072 -0.0024573272 0.0070671686 -0.03741063 -0.053001087
0.008027588 -0.008712375 0.017414846 0.011671008 -0.021445468 0.016509924 0.0098346 0.025114812

_encoder.res_tower.1.bn1.weight f4 [32]
00000000: 4654 613f b231 693f 8b5f 5e3f 0ff2 613f
00000010: 7996 663f a4e4 523f b926 623f 879b 493f
00000020: 5208 6f3f babe 693f 9f85 583f 5654 6c3f
00000030: 2cef 7c3f 65b7 4d3f b46d 6c3f b498 693f
00000040: b46f 5c3f eec3 6c3f 60f0 583f 8c38 753f
00000050: 997d 573f 97d8 643f a6b8 793f 64c6 633f
00000060: f7f3 693f 46f6 803f 43df 673f c56e 613f
00000070: 631c 793f 5b41 713f 3266 623f 321c 573f
0.88019216 0.91091454 0.86864537 0.8825998 0.90073353 0.8238013 0.88340336 0.7875294
0.9337207 0.9130665 0.8457889 0.92316186 0.9880245 0.8035796 0.92354894 0.9124863
0.86107945 0.92486465 0.84741783 0.9578941 0.8417602 0.8939299 0.97547376 0.88974595
0.91387886 1.0075157 0.90575045 0.88059646 0.9730894 0.9424035 0.8843719 0.840274

_encoder.res_tower.1.bn1.bias f4 [32]
00000000: ad0f 16be 5f83 f7bd b61b 92be 4136 28be
00000010: 5db6 24be d240 15be 8d51 e0bc 46ae c6bc
00000020: 20a0 34bd da27 d6bd d526 76bd 32c8 37be
00000030: a217 40be 57fb bfbd 7133 5dbe 6455 f0bd
00000040: 4c9b 74be 9249 70be 63dc 21bc ef58 b1bd
00000050: e685 0bbe b9b0 2dbe 766b e8bd 0776 05be
00000060: b03b cdbd a905 c4bd 9ff9 a9bd fef7 0fbe
00000070: 2823 c7bd 8348 e5bd e72c 9ebd 6862 3bbe
-0.14654417 -0.12085604 -0.28536767 -0.16426946 -0.16085191 -0.14575508 -0.027382636 -0.024253022
-0.04409802 -0.1045682 -0.060095627 -0.17947462 -0.18759015 -0.09374111 -0.21601655 -0.11735037
-0.23887366 -0.23465565 -0.009879204 -0.08659541 -0.13625297 -0.16961946 -0.113486215 -0.13033305
-0.1002115 -0.09571392 -0.082995646 -0.14059445 -0.097235024 -0.11195471 -0.07723408 -0.18299258

_encoder.res_tower.1.bn1.running_mean f4 [32]
00000000: 98eb 3a3f 5ac9 38be 421d bf3f 025b 153d
00000010: d5ae dabe 58da 7e3d c603 2bbf 22ae fcbc
00000020: c4bf 1fbf 0f2b 89be 3e3d 293d 1a9d e5be
00000030: baca 8dbf 4939 63be d4a4 42be 62ae babe
00000040: da56 d43f 1cbf dabe 5773 d0bd aef1 6dbf
00000050: 7d7d da3e fb84 0bbe e17b efbe 0963 833f
00000060: 5f84 2cbf 784e 03bf 9c4d b53e 929c 2e3f
00000070: ef5f 89be a0d7 81bf 9df8 a5be a17d 4c3d
0.7301574 -0.1804556 1.4930804 0.036463745 -0.4271151 0.062219948 -0.6680263 -0.030844752
-0.62401986 -0.26790664 0.04131817 -0.4484642 -1.1077492 -0.22189821 -0.1900819 -0.3646117
1.6589005 -0.4272393 -0.10178249 -0.929469 0.42673865 -0.13624947 -0.467742 1.0264598
-0.6738948 -0.5129161 0.35410774 0.6820766 -0.26831004 -1.0143929 -0.3241624 0.049924497

_encoder.res_tower.1.bn1.running_var f4 [32]
00000000: 893c 1740 b650 fb3f aa1d 2e40 95bc bd3f
00000010: b830 b43f c5d9 d43f a299 d33f 7b0d 1340
00000020: 791d f23f 3157 d33f 67cc d33f aa57 c23f
00000030: 3013 1440 e5c7 cc3f b414 f03f 1f14 ed3f
00000040: 48da 4140 c708 2040 aeca 1540 8b16 dd3f
00000050: 38e9 d73f 20c7 d63f 4c92 f23f 52a1 f93f
00000060: bcdf bc3f 31c1 0240 5b0e d63f e787 be3f
00000070: e41b f63f ec73 c83f a221 c23f eef4 9f3f
2.3630698 1.9634006 2.7205606 1.4823176 1.4077368 1.6628958 1.653126 2.2976978
1.8915244 1.6510984 1.6546754 1.5183003 2.313671 1.5998503 1.8756318 1.8521765
3.0289478 2.5005357 2.3404956 1.7272505 1.6868048 1.6779518 1.8950896 1.9502356
1.4755778 2.0430415 1.6723131 1.4885224 1.9227262 1.5660377 1.5166514 1.2496622

_encoder.res_tower.1.conv2.weight f4 [32, 32, 3, 3]
00000000: 04d0 d03d 1a34 19be 8859 b03c 75d7 6e3d
00000010: b71e cc3c cf8d c13d 6a1b fdbd 9889 2c3d
00000020: 2772 e43c b324 35bd a2ee 59bc ee5f c43d
00000030: 1895 d1bc 0748 6dbd 2776 a73d c228 b43d
00000040: 471f 82bc 9936 1ebd 4ac8 1c3c 1c61 163d
00000050: ad0b a9bc 6b69 fd3b db02 983a 568a 0e3e
00000060: 8916 c23b 4fbc a3bc 640d e43c 0307 d4bd
00000070: 71b0 95bd 8fc3 9a3c 9a45 42bd e82d 19bd
00000080: e884 963b b663 35bd 61b0 b63d b5c6 42bc
00000090: d29b 613d 7eb5 c73b 6242 88bc 569e b53d
000000a0: 4e2c d1bd 9b89 c73d b888 1abd c821 b6ba
000000b0: 7518 3d3d e9f1 63bd f721 95bd d191 75bd
000000c0: c380 d53b 90ed 65bd ed6a 9dbd a0d7 853d
000000d0: e117 283d 3551 0c3d dd9a 223e 10b4 aebd
000000e0: 5add ae3d 2ccd 403c 5e34 12be 5a1a 523d
000000f0: 03b2 6fbd 7443 273d f869 ec3d d727 963d
00000100: 7572 01be 742b 48bc 7e29 9a3c cc87 733d
00000110: a91b 87bb 96a0 08be 2376 2cbc 005f bcbc
00000120: 4184 72bc 343f d73c d4c9 943d 2e81 5f3d
00000130: c431 ee3d da8f 043c c976 0dbd b991 cebd
00000140: 0f98 853d 9f1f 2c3c 020b d0bd 8c96 a7bd
00000150: c473 9f3b 1dab 803d a7ec bebc 0fba 04bd
00000160: caa0 acbd 5529 9fbd 2e3e 9dbb 6059 4dbd
00000170: 5109 b83d 6c65 8abd c5ac fe3c 5f0d 22bc
00000180: fdbd a53d 42c3 01be 7b1c adbd 7874 473d
00000190: 5f0e a3b8 d100 7ebd 3dcd b5bd ab34 cc3c
000001a0: 3f7c c43d e24a a7bd b840 cc3d ff4e 953d
000001b0: dff0 243d 0327 6fbd 6e08 0d3e 1c79 70bd
000001c0: 2543 43bd 7a6a 193e 54e2 be3d fcd0 94bc
000001d0: 95a6 333d 0260 093d 0be3 a73d 9f78 483d
000001e0: b89e b93d 2bd0 823c d5ef 8ebd 6220 93bd
000001f0: ced4 d3bc 1b59 44bb 5ba7 063d c566 a0bd
00000200: d674 86bc 218a bebc b2d0 3dbe 2a15 70bc
00000210: 3f19 913d 8f8a 5a3c 23de 08bb 078c c63c
00000220: 5307 e33d 5b3d 50bd 10dd 0bbb 7a64 263d
00000230: 4497 863c 2a60 e3bd b582 cebd b7cd 003d
00000240: e43a 60bc f034 febc 7687 dfbb bf09 2e3d
00000250: bb7d b03c 70a6 453d c3c6 49bd aa87 4ebd
00000260: 5f74 5fbe aba8 e63d 48ec 17ba d2ea 1ebd
00000270: f8fd a3bc 84a2 f1bd 1f5e 0a3e 462c 243e
00000280: 5283 acbc 3c31 bc3d bfa9 34bd 48d0 813d
00000290: dc2b adbd 1732 133d aea4 ba3c a336 1ebe
000002a0: 0c4d e23c 4be5 8bbd 711a ad3d 601a b73d
000002b0: 0a07 42bd d333 aa3c 1f49 db3d cec5 8fbc
000002c0: 586f 133d 70b2 53bd 474d 043d 68e6 613d
000002d0: 3e9e a0bd f401 0e3d 5e26 e23c 2386 98bc
000002e0: ff48 40bd 7c7f 2abe 6adf 1cbd 551d 0fbd
000002f0: 1572 14bc 50ea babd 4eeb d43c bdeb 823d
00000300: 6047 83bd 56bb 9f3d c6bd 463c aee2 e63c
00000310: 86aa debd d5de 4bbd 59ca 9e3d 6126 a13b
00000320: dd97 f03d 2313 a33d cfcc 24be 8711 073e
00000330: 8566 30be 9ad7 c93c 4c60 2a3d a7b3 b8bd
00000340: b149 dbbd 9936 d93d 609d e7bd 244b 82bd
00000350: 1908 3abe 62af 683d f653 ad3d f054 20bd
00000360: 180d d93d e8cc a9bc 4b6f 3fbc f811 fe3c
00000370: d474 c2bd fd2c e8bb a00f 16bd 99d1 3fbd
00000380: 45c9 f2bc 0847 a53d 730c b43d 9ba1 5a3c
00000390: 78b3 af3d 01f7 283e 5d0e c7bc a760 80bd
000003a0: f83f 9bbd c575 133e febb d13d a4a3 2f3c
000003b0: a33c 77bc cb62 0abd b801 73bd ea82 d83d
000003c0: fd6e 0b3e b97a 99bd 4619 6c3c d36f 08be
000003d0: 0e33 1bbd ffc3 bf3d b7ae b4bc 9dd3 973d
000003e0: 7d6f edbc a415 06be 737b 653b 69c1 563d
000003f0: 8384 d3bd 6f7f 323b 9784 aabc c01f 703d
0.10195926 -0.14961281 0.021527067 0.058310945 0.02491699 0.09450876 -0.123587444 0.042123407
0.027886463 -0.044224452 -0.013301523 0.0958861 -0.025583789 -0.05793002 0.08176833 0.087968364
-0.015884055 -0.038626287 0.009569237 0.036713704 -0.02063545 0.007733514 0.0011597531 0.13919958
0.0059230966 -0.019987253 0.027838416 -0.103529 -0.07309044 0.018892078 -0.04742966 -0.037397295
0.0045934804 -0.044284545 0.0892036 -0.011888196 0.055080242 0.0060946336 -0.016633216 0.08868091
-0.102135286 0.09743043 -0.03772804 -0.0013895566 0.046165902 -0.055650625 -0.07281869 -0.059953514
0.0065155937 -0.05613476 -0.0768641 0.06535268 0.041038398 0.034257133 0.15879388 -0.08530438
0.08538313 0.011767667 -0.14277789 0.051294662 -0.058519375 0.040835813 0.115436494 0.073318176
-0.12641318 -0.012217391 0.018818613 0.059455678 -0.0041231704 -0.13342509 -0.010526213 -0.022994518
-0.01480204 0.026275255 0.07265058 0.054566555 0.11630586 0.0080909375 -0.03453711 -0.10086388
0.065231435 0.010505586 -0.101583496 -0.081830114 0.0048660953 0.06282637 -0.023306204 -0.032404
-0.084291056 -0.07771555 -0.004798672 -0.050134063 0.08986152 -0.06757626 0.031088242 -0.009890883
0.08092878 -0.12672141 -0.08452698 0.048695058 -7.7751225e-05 -0.062012497 -0.08877037 0.024927458
0.095940106 -0.0816858 0.099732816 0.07290458 0.040268775 -0.058386814 0.13772747 -0.05870925
-0.047671456 0.14982024 0.093205124 -0.018166058 0.043860037 0.033538826 0.08197602 0.04894316
0.09063476 0.015968403 -0.06979338 -0.07183911 -0.02585831 -0.0029960338 0.032874446 -0.07832102
-0.016413134 -0.023259224 -0.18536642 -0.014653483 0.070848934 0.013338699 -0.0020884357 0.024236692
0.11085381 -0.050839763 -0.002134148 0.040623166 0.016429551 -0.11102326 -0.10083524 0.031446185
-0.013685916 -0.031031102 -0.006821568 0.042489763 0.021544328 0.04825443 -0.04926182 -0.050422348
-0.21821736 0.112626396 -0.00057954015 -0.03879816 -0.020018563 -0.117985755 0.13512467 0.16032514
-0.021058712 0.09189078 -0.044107195 0.063385546 -0.08455631 0.03593644 0.022783604 -0.1545053
0.02762463 -0.068308435 0.08452309 0.089405775 -0.047369994 0.020776665 0.10707306 -0.017550375
0.035994858 -0.051683843 0.03230026 0.055151373 -0.07842682 0.03466983 0.027606186 -0.018618649
-0.046944614 -0.16650194 -0.038299 -0.034940083 -0.009060402 -0.09126723 0.025991108 0.0639262
-0.06410098 0.07799403 0.012130206 0.028184261 -0.108723685 -0.049773056 0.077534385 0.004917905
0.117477156 0.079626344 -0.16093753 0.1319028 -0.17226608 0.02463894 0.041595742 -0.09018641
-0.10707415 0.10606117 -0.11309314 -0.06361988 -0.18167152 0.056807883 0.0846328 -0.039143503
0.105982006 -0.02072759 -0.011684249 0.031014428 -0.094949394 -0.007085441 -0.036635995 -0.046830747
-0.029636988 0.08070189 0.08791437 0.013344194 0.08579153 0.16500475 -0.024298841 -0.06268435
-0.075805604 0.14400394 0.10240935 0.010720167 -0.0150901405 -0.033785623 -0.05932781 0.10571845
0.13616557 -0.074941106 0.0144103225 -0.13323908 -0.037890486 0.09363555 -0.022055967 0.07413409
-0.028983826 -0.13094193 0.0035016208 0.052430544 -0.10328009 0.00272366 -0.020815177 0.05862403

_encoder.res_tower.1.conv2.bias f4 [32]
00000000: 5f0f 05bc cbd7 8e3c ce12 22bd ca7b 93bc
00000010: 97bb f03b ce6a 2f3d a696 393d f5de 253d
00000020: 0fda 20bd a6b2 c13c 2c59 dbbc eb1d e3bc
00000030: a16d 0c3c 9f19 4c3c f3dd 9bbc 2027 34bb
00000040: 7c14 a03a bcb4 1bbd 6d85 c5bc 0133 2b3d
00000050: b410 06bb 9a3b 323d 3af1 72bc 7daa 073d
00000060: e740 433c 777c 95bc 094a 57bd d141 1d3d
00000070: 431c 9dbc f634 0a3b 93ba 543d 90e1 2d3d
-0.008121341 0.017436882 -0.039568715 -0.018003363 0.007346581 0.042826466 0.045309685 0.04049583
-0.039270457 0.023644757 -0.026775919 -0.027724227 0.008571059 0.01245728 -0.019026732 -0.002748914
0.0012213136 -0.03801416 -0.024111474 0.041796688 -0.0020456733 0.04351387 -0.014828021 0.033121575
0.011917329 -0.018247826 -0.05256084 0.038392846 -0.019178515 0.0021088696 0.051935744 0.04245144

_encoder.res_tower.1.bn2.weight f4 [32]
00000000: 4c6b 673f 5ca3 633f de7b 753f 84a4 503f
00000010: 32d7 613f 81d2 663f 5888 6d3f 81e0 803f
00000020: 6956 4c3f d85b 663f c988 673f 21ee 5a3f
00000030: 7063 6a3f f1ff 573f 1ce1 563f 0f7c 583f
00000040: be0c 753f a05e 5b3f a514 563f 0755 533f
00000050: ade9 6b3f a06b 673f 5da2 663f db02 5c3f
00000060: efb3 5a3f 0f85 633f 7492 713f 4810 553f
00000070: d9c7 553f 2274 5a3f e898 6b3f e825 783f
0.903981 0.8892114 0.9589213 0.8150103 0.88218987 0.90164953 0.9278617 1.0068513
0.7981935 0.8998389 0.9044309 0.85519606 0.9155798 0.8437491 0.8393724 0.845643
0.9572257 0.8569126 0.8362525 0.82551616 0.92153436 0.903986 0.90091497 0.8594186
0.85430807 0.88874906 0.94364095 0.8322797 0.8350807 0.85333455 0.9203019 0.9693284

_encoder.res_tower.1.bn2.bias f4 [32]
00000000: 496e 8bbc 3a14 5abd bd0f 36bd 453d aebd
00000010: cbeb 61ba 17a6 88bd 5cd2 07be 1c6c 97bd
00000020: c1b6 bdbd a24f 21be 742f 80be c135 fcbc
00000030: befe 38be 974b 94bd 3f0e a1bd f49a d8bd
00000040: 1dcf 48bd 5ca3 2dbd aa16 10be 5145 c9bd
00000050: 37fa 34be 4122 f1bd 2f15 1bbe ebde 13be
00000060: 8b56 29be 20ba b2bd 7cda a9bd 1cbb d8bd
00000070: 4127 b33c ea85 0dbe 2405 d0bd 0732 d2bd
-0.017020361 -0.053241946 -0.044448603 -0.0850778 -0.0008618205 -0.06672304 -0.1326384 -0.07393667
-0.09263373 -0.15753034 -0.25036204 -0.03078735 -0.18065926 -0.0724098 -0.07864045 -0.1057643
-0.049025644 -0.04239212 -0.14071146 -0.09827674 -0.17673574 -0.117741115 -0.151448 -0.14440505
-0.1653692 -0.08726907 -0.08293626 -0.10582563 0.021869304 -0.13820615 -0.101572305 -0.10263448

_encoder.res_tower.1.bn2.running_mean f4 [32]
00000000: 19a0 ebbd 51db bc3e fa50 e6bc 16ca e03d
00000010: e598 f93d 9b18 98be 7ab8 323e 3d28 4cbd
00000020: 2e08 1dbe bf26 bfbe c045 183e d892 6abe
00000030: 5355 c7be 0b68 1bbf 3bad 7d3b 2336 7dbe
00000040: 8c26 663e f145 3b3d f0c4 353d 5c6e 093d
00000050: 7b7b 88bd 58bc 32be 80c8 873e d343 df3d
00000060: dc3e 343e 9f9b 04bd 42c2 f1be 1c29 11bf
00000070: bdae 47be b95e 253e 3010 72be 3f83 50be
-0.115051456 0.36886075 -0.028114785 0.10976045 0.121873654 -0.29706272 0.17453185 -0.04984306
-0.15335152 -0.37334248 0.14870358 -0.22907579 -0.38932285 -0.6070563 0.003870799 -0.24727683
0.22475642 0.045721 0.044377267 0.033552513 -0.06664177 -0.1745466 0.26520157 0.10901608
0.17602104 -0.032374974 -0.4721852 -0.5670335 -0.19500251 0.16149415 -0.23638988 -0.20362566
