pretrained/ttt_4blocks_64filters.pth (torch_old, 319264 bytes, 66 tensors)

_encoder.conv_in.weight f4 [64, 1, 3, 3]
0.21592249 0.25856474 -0.18957692 -0.2090619 0.30493292 0.05436423 -0.027491698 0.35454732
0.12123741 0.022181783 0.010524242 0.10715065 0.23025182 -0.26478755 -0.1334233 0.19324382
-0.106274694 -0.13754718 0.14557102 0.11902448 0.30806753 -0.14578077 0.2917599 -0.3071766
0.16848181 -0.14522788 0.040881615 -0.030151516 0.2564359 0.06852734 0.0363382 0.31883654
0.07109543 0.3220471 -0.025380725 0.33324042 0.1869099 -0.21459301 0.14468461 0.032351073
0.057598043 0.06409985 0.18766059 -0.1856717 -0.283689 0.14604935 0.075486384 -0.069661215
-0.03140273 0.06759664 -0.40268406 -0.27983546 0.042398203 -0.057206377 -0.2908715 -0.24445166
0.05644722 -0.31255332 0.01732774 0.13358918 -0.09294034 0.1931827 0.262441 0.14796254
0.123060964 0.3102113 0.25968793 -0.113027565 0.23637608 0.060640648 -0.0062220204 0.16913864
-0.2017513 0.05712674 -0.06890191 -0.049457252 -0.17903595 0.2584216 0.35163593 -0.102195635
-0.18668902 -0.14761314 0.21658319 0.07459524 0.23471506 0.30249473 -0.15801667 0.048785213
0.3080952 -0.027180117 -0.12092022 -0.0090703145 -0.0022084324 0.18822056 -0.23142299 -0.008234639
0.30701467 0.034387607 0.30499315 -0.1994142 0.26231912 -0.14759764 -0.14222309 0.028496224
0.36790532 -0.2746656 -0.21165267 -0.08519155 0.03591673 0.28111076 0.22889356 -0.21324435
0.25676975 0.029854562 0.016604822 -0.22795664 -0.17483264 0.18155356 -0.08292045 0.07063354
0.1894243 0.23224393 0.2383799 0.23891786 0.19452775 -0.30206525 -0.1157902 -0.30781883
-0.21871342 -0.15988337 -0.055369977 -0.27963737 -0.20375915 -0.1830075 -0.067908704 -0.23883884
0.22612002 0.05481472 -0.10143879 -0.041798122 0.31264275 0.25508937 -0.2157158 -0.13194333
-0.10831044 0.2180969 -0.13816501 0.05616585 0.32648897 0.10800697 -0.013214063 0.12158594
-0.0277105 0.19123898 -0.044662736 0.020612517 0.19817306 -0.3699965 0.28876087 0.012073949
-0.020888478 -0.13320445 0.19134073 0.06620394 -0.09811903 0.23978606 0.06637044 -0.17401193
0.12672336 0.051114958 -0.28438568 0.12755586 -0.22386107 -0.12187142 -0.13344055 -0.29858032
0.043360755 0.12258186 -0.17387885 -0.035051804 -0.2761227 -0.24676609 -0.38307935 -0.018969795
-0.16822107 0.16161464 0.24249317 -0.16293564 0.13437165 0.068085104 0.3204872 0.1022651
-0.07099458 -0.16394895 -0.23506127 -0.04418872 -0.2400961 -0.20609094 0.31455332 0.12816696
0.16094866 0.22612265 0.050700046 0.061674904 0.0843647 -0.11209571 -0.13558859 0.3288389
-0.10732281 0.1717641 -0.26606366 0.14349142 0.3702749 -0.055230483 -0.09423296 0.13712543
0.12294948 -0.08363948 -0.10653361 -0.33031642 0.048033167 0.11198898 0.33321512 0.06845759
0.232998 -0.27996093 0.19685727 0.110598944 -0.22744133 -0.08164424 -0.15658456 0.30216783
0.0876213 0.29575786 0.004867072 -0.029815406 0.32345665 0.046088632 -0.3666921 -0.16636477
-0.029188912 -0.189855 0.014219984 -0.13531035 0.1704904 0.06938155 0.25838757 0.3060251
0.20691977 -0.18341 0.00314485 -0.2135802 -0.19706261 -0.054493487 -0.34574908 0.09774955
00000000: c91a 5d3e 9962 843e 7420 42be 5314 56be
00000010: 2b20 9c3e 07ad 5e3d 4536 e1bc 3a87 b53e
00000020: 524b f83d 92b6 b53c df6d 2c3c cd71 db3d
00000030: 22c7 6b3e 3c92 87be 1ea0 08be b5e1 453e
00000040: 8ca6 d9bd 2bd9 0cbe 9210 153e 1bc3 f33d
00000050: 07bb 9d3e 8e47 15be 8e61 953e 4046 9dbe
00000060: 7f86 2c3e 9eb6 14be 7b73 273d 5000 f7bc
00000070: 914b 833e 1058 8c3d 5dd7 143d 8b3e a33e
00000080: 7b9a 913d 5ce3 a43e 3deb cfbc 7d9e aa3e
00000090: 4f65 3f3e 45be 5bbe 3428 143e 8f82 043d
000000a0: edeb 6b3d c846 833d 192a 403e b920 3ebe
000000b0: af3f 91be f68d 153e 9b98 9a3d 8aaa 8ebd
000000c0: 26a0 00bd 1b70 8a3d 9b2c cebe 9846 8fbe
000000d0: bda9 2d3d 3c51 6abd 1ced 94be 8951 7abe
000000e0: 3335 673d fd06 a0be e8f2 8d3c 9acb 083e
000000f0: 8157 bebd b0d1 453e ab5e 863e 7e83 173e
00000100: 6307 fc3d 04d4 9e3e d1f5 843e ff7a e7bd
00000110: 920c 723e 5462 783d 17e2 cbbb ae32 2d3e
00000120: e597 4ebe bbfd 693d 721c 8dbd b093 4abd
00000130: 3355 37be d64f 843e a009 b43e f24b d1bd
00000140: 682b 3fbe e627 17be fcc7 5d3e 64c5 983d
00000150: 2559 703e 97e0 9a3e 1fcf 21be 01d3 473d
00000160: a7be 9d3e d6a8 debc 05a5 f7bd a89b 14bc
00000170: 59bb 10bb e4bc 403e 26fa 6cbe 94ea 06bc
00000180: 0731 9d3e 05da 0c3d 1028 9c3e 3c33 4cbe
00000190: b14e 863e d623 17be eea2 11be ea70 e93c
000001a0: 165e bc3e f8a0 8cbe 7abb 58be e878 aebd
000001b0: 6c1d 133d c0ed 8f3e 1363 6a3e ba5c 5abe
000001c0: 5377 833e 8e91 f43c d606 883c 776d 69be
000001d0: 5407 33be 2de9 393e 32d2 a9bd 51a8 903d
000001e0: 72f8 413e 5ad1 6d3e dc19 743e e2a6 743e
000001f0: 4832 473e 4ca8 9abe 6a23 edbd 6e9a 9dbe
00000200: 69f6 5fbe 77b8 23be a1cb 62bd a12c 8fbe
00000210: 3da6 50be 5166 3bbe b813 8bbd 2b92 74be
00000220: 028c 673e 6685 603d 24bf cfbd 8234 2bbd
00000230: b612 a03e 139b 823e 9ae4 5cbe 271c 07be
00000240: ddd1 ddbd cb54 5f3e 217b 0dbe 2a0e 663d
00000250: 9029 a73e c232 dd3d cc7f 58bc 0d02 f93d
00000260: 2101 e3bc 27d4 433e 46f0 36bd 95db a83c
00000270: e1ed 4a3e 2e70 bdbe 77d8 933e d0d1 453c
00000280: 501e abbc bf66 08be d3ee 433e ee95 873d
00000290: a1f2 c8bd 7a8a 753e 3aed 873d 2f30 32be
000002a0: c5c3 013e eb5d 513d 009b 91be 019e 023e
000002b0: d63b 65be b997 f9bd a4a4 08be 85df 98be
000002c0: 0c9b 313d 330c fb3d 4c0d 32be 7b92 0fbd
000002d0: f45f 8dbe 40b0 7cbe fa22 c4be 8b66 9bbc
000002e0: 2542 2cbe 4f7e 253e 2150 783e 9ad8 26be
000002f0: b998 093e 3470 8b3d e616 a43e 5d70 d13d
00000300: 9b65 91bd 3ce2 27be e7b3 70be 3bff 34bd
00000310: c1db 75be 8109 53be 220d a13e 333e 033e
00000320: bacf 243e b28c 673e daaa 4f3d d39e 7c3d
00000330: 66c7 ac3d 7092 e5bd bcd7 0abe 935d a83e
00000340: 10cc dbbd eee2 2f3e 7f39 88be 6aef 123e
00000350: ac94 bd3e 5c39 62bd 36fd c0bd 9c6a 0c3e
00000360: f0cc fb3d 2d4b abbd 4b2e dabd 3c1f a9be
00000370: 6dbe 443d 7a5a e53d 2c9b aa3e 7e33 8c3d
00000380: 0797 6e3e 0a57 8fbe f494 493e b381 e23d
00000390: 61e6 68be 1835 a7bd b457 20be beb5 9a3e
000003a0: cc72 b33d 936d 973e f67b 9f3b 703f f4bc
000003b0: 1c9c a53e 6fc7 3c3d 11bf bbbe 875b 2abe
000003c0: 961d efbc 5969 42be f0fa 683c cc8e 0abe
000003d0: 0995 2e3e ea17 8e3d 604b 843e 52af 9c3e
000003e0: c7e2 533e d5cf 3bbe d419 4e3b c5b4 5abe
000003f0: c8ca 49be 9034 5fbd 0606 b1be eb30 c83d

_encoder.conv_in.bias f4 [64]
-0.18330859 -0.24347311 -0.23162043 -0.082278095 -0.034135967 -0.03162752 -0.2590294 -0.12606288
0.15258525 -0.18748923 0.29501882 -0.3024111 -0.13920419 -0.27141845 0.23458064 -0.19016302
0.24375784 0.03232583 -0.13115056 0.1020201 0.31205544 -0.15932246 -0.011852597 0.24176365
-0.02973645 0.12351119 0.091670446 -0.2815461 -0.14286995 0.0135637 -0.26873398 -0.056640342
-0.16369277 0.0770136 -0.26485366 0.11935509 0.07327394 -0.0784286 0.2765448 0.18213233
-0.06123585 -0.32134986 0.12236461 0.047200803 -0.05891791 0.1491295 -0.06575474 -0.08351364
-0.025751753 -0.20631762 -0.29414362 0.18637964 -0.16569048 0.028787076 -0.11063154 0.16160811
-0.15018028 -0.059372805 0.08658198 -0.057407737 -0.15677519 0.058680993 -0.10047187 -0.30752537
00000000: 3fb5 3bbe 0451 79be e82d 6dbe 6b81 a8bd
00000010: 28d2 0bbd dc8b 01bd 809f 84be a116 01be
00000020: 4f3f 1c3e 2dfd 3fbe b50c 973e a1d5 9abe
00000030: 8b8b 0ebe 5cf7 8abe e835 703e 18ba 42be
00000040: a89b 793e 1768 043d 554c 06be eaef d03d
00000050: bbc5 9f3e 6d25 23be 6531 42bc e490 773e
00000060: db99 f3bc 6ff3 fc3d b7bd bb3d cf26 90be
00000070: 804c 12be 483a 5e3c 8097 89be b4ff 67bd
00000080: 149f 27be 4eb9 9d3d e69a 87be 7170 f43d
00000090: a610 963d 2d9f a0bd 4897 8d3e e680 3a3e
000000a0: 71d2 7abd f887 a4be 4c9a fa3d a155 413d
000000b0: e853 71bd 67b5 183e 6caa 86bd 3309 abbd
000000c0: 57f5 d2bc ed44 53be fe99 96be 4eda 3e3e
000000d0: c4aa 29be e0d2 eb3c ca92 e2bd 997c 253e
000000e0: dcc8 19be e630 73bd e551 b13d 6024 6bbd
000000f0: ad89 20be 7b5b 703d 32c4 cdbd f773 9dbe

_encoder.bn_in.weight f4 [64]
0.9866874 0.9631152 0.9024862 0.9590862 0.96608627 0.947797 0.94736904 0.9610606
0.954215 0.9579175 0.96393085 0.9717068 0.9321353 0.9610892 1.0481 0.9329223
1.0116658 0.95036286 0.97748446 0.9916498 0.9786248 0.9838826 0.96969587 0.9711714
1.0042577 0.9326832 0.98105603 0.9634391 0.95601064 1.009889 0.9370881 0.9652126
0.9778092 0.9827421 0.9498215 0.95249325 0.96917325 0.9543892 0.955491 1.0268905
1.039866 0.95940566 0.9518803 1.0004487 0.9769437 0.9598591 0.9560744 0.94291806
0.9299524 0.95542717 0.96966475 0.963815 0.9680153 0.98839325 0.99766105 0.9823194
0.9473614 0.964256 0.9483661 0.99328744 0.94027525 0.98932105 0.9556692 0.9372839
00000000: 8c97 7c3f b88e 763f 5609 673f ac86 753f
00000010: 6e51 773f d3a2 723f c786 723f 1108 763f
00000020: 6f47 743f 153a 753f 2cc4 763f c7c1 783f
00000030: 6ba0 6e3f f109 763f 2428 863f ffd3 6e3f
00000040: 447e 813f fb4a 733f 6c3c 7a3f c3dc 7d3f
00000050: 2887 7a3f bbdf 7b3f fd3d 783f b09e 783f
00000060: 848b 803f 54c4 6e3f 7d26 7b3f f2a3 763f
00000070: 1dbd 743f 0b44 813f 01e5 6f3f 2c18 773f
00000080: b451 7a3f fc94 7b3f 8027 733f 99d6 733f
00000090: bd1b 783f da52 743f 0f9b 743f 2671 833f
000000a0: 541a 853f 9c9b 753f 6dae 733f b40e 803f
000000b0: fb18 7a3f 53b9 753f 4bc1 743f 1463 713f
000000c0: 5c11 6e3f e096 743f f33b 783f 94bc 763f
000000d0: dacf 773f 5707 7d3f b766 7f3f 4979 7b3f
000000e0: 4786 723f 7bd9 763f 1fc8 723f 1648 7e3f
000000f0: e1b5 703f 2544 7d3f bda6 743f d6f1 6f3f

_encoder.bn_in.bias f4 [64]
-0.06731097 -0.05107827 -0.06865105 -0.062173855 -0.05667735 -0.05390325 -0.08669175 -0.059274957
-0.06813248 -0.07889969 -0.09814203 -0.10209504 -0.07803723 -0.05246738 -0.038848 -0.062168974
-0.10075051 -0.058925588 -0.05717294 -0.045958135 -0.05502101 -0.031085696 -0.07177866 -0.054286674
-0.04215002 -0.073540986 -0.045634817 -0.0509903 -0.056828525 -0.049866434 -0.021454811 -0.07315245
-0.05638228 -0.057592332 -0.12381592 -0.060663704 -0.034049295 -0.060796864 -0.07327434 -0.030021483
-0.05001094 -0.044344958 -0.009395075 -0.023436641 -0.042955693 -0.07457422 -0.078292 -0.10048646
-0.026868563 -0.0706834 -0.078100406 -0.043071017 -0.03134766 -0.08213551 -0.065167725 -0.014936575
-0.062599614 -0.047696874 -0.067140944 -0.025699977 -0.017702274 -0.04343322 -0.090952404 -0.046430442
00000000: 55da 89bd 7337 51bd ec98 8cbd 03aa 7ebd
00000010: 8226 68bd a7c9 5cbd 728b b1bd 4cca 72bd
00000020: 0b89 8bbd 2996 a1bd b0fe c8bd 3417 d1bd
00000030: fcd1 9fbd 09e8 56bd 151f 1fbd e5a4 7ebd
00000040: 4956 cebd f55b 71bd 2c2e 6abd 993e 3cbd
00000050: b65d 61bd 6ea7 febc b100 93bd b45b 5ebd
00000060: 80a5 2cbd a89c 96bd 93eb 3abd 34db 50bd
00000070: 07c5 68bd bf40 4cbd 00c2 afbc f4d0 95bd
00000080: 1bf1 66bd f0e5 6bbd 3393 fdbd 817a 78bd
00000090: 4677 0bbd 2206 79bd db10 96bd 9def f5bc
000000a0: 45d8 4cbd 0fa3 35bd cded 19bc 33fe bfbc
000000b0: 4ff2 2fbd 5eba 98bd 8e57 a0bd d8cb cdbd
000000c0: 761b dcbc 75c2 90bd 1bf3 9fbd 3c6b 30bd
000000d0: 6766 00bd aa36 a8bd a876 85bd 89b8 74bc
000000e0: 3a34 80bd cc5d 43bd 3181 89bd c288 d2bc
000000f0: 5c04 91bc 08e7 31bd 4145 babd d92d 3ebd

_encoder.bn_in.running_mean f4 [64]
-0.21664792 -0.2357405 -0.24483734 -0.12566045 -0.031254973 -0.017911194 -0.25191817 -0.15707
0.15794726 -0.22164658 0.2853546 -0.29331267 -0.14717898 -0.30494422 0.28267923 -0.19300532
0.21885075 0.034184046 -0.13906114 0.12994991 0.33442122 -0.14073752 -0.033037063 0.22587775
-0.03975721 0.11832095 0.113230444 -0.3041961 -0.12007775 0.03315284 -0.2739649 -0.036334343
-0.19266993 0.076668 -0.27171624 0.11456842 0.09698098 -0.08074532 0.28997862 0.13958414
-0.051265724 -0.29271713 0.14377162 0.08800784 -0.032736085 0.13784938 -0.060528405 -0.079314396
-0.020554112 -0.21663827 -0.30567327 0.1671212 -0.16310841 0.0033587515 -0.113742165 0.14675286
-0.14713964 -0.06410137 0.12210932 -0.091510154 -0.19495499 0.065957524 -0.12881772 -0.30192828
00000000: f4d8 5dbe f565 71be a4b6 7abe 22ad 00be
00000010: 3705 00bd 7fba 92bc 6bfb 80be f5d6 20be
00000020: edbc 213e 52f7 62be 001a 923e 142d 96be
00000030: 16b6 16be a621 9cbe 55bb 903e 30a3 45be
00000040: 691a 603e 9204 0c3d 0b66 0ebe 9711 053e
00000050: 4239 ab3e 7f1d 10be df51 07bd 7f4c 673e
00000060: 75d8 22bd 4152 f23d 5de5 e73d 97bf 9bbe
00000070: 53eb f5bd 46cb 073d 2145 8cbe 52d3 14bd
00000080: 444b 45be 1d04 9d3d 641e 8bbe d9a2 ea3d
00000090: f79d c63d cd5d a5bd 1478 943e 25ef 0e3e
000000a0: 02fc 51bd 05df 95be de38 133e 743d b43d
000000b0: 4616 06bd 6328 0d3e a2ec 77bd 966f a2bd
000000c0: 1961 a8bc 6cd6 5dbe 3581 9cbe d221 2b3e
000000d0: e405 27be 801e 5c3b a7f1 e8bd 6246 163e
000000e0: c6ab 16be 9447 83bd 7314 fa3d ad69 bbbd
000000f0: 48a2 47be bd14 873d cbe8 03be 5896 9abe

_encoder.bn_in.running_var f4 [64]
0.091222584 0.054740384 0.09109959 0.060534135 0.052152913 0.0585756 0.063060634 0.051296365
0.07032147 0.07124961 0.064145885 0.08227534 0.07537701 0.06433868 0.0368125 0.07665188
0.049185842 0.10102906 0.037602726 0.04975903 0.075028725 0.0602535 0.03148417 0.08286355
0.06317288 0.0793206 0.07377252 0.06776612 0.04995428 0.057005845 0.056693975 0.045979064
0.05169503 0.06380938 0.056412153 0.09957898 0.05090049 0.031243527 0.14669777 0.059035458
0.07441157 0.07618119 0.067802094 0.036566086 0.07563585 0.07145007 0.078926675 0.08610673
0.049928762 0.047988303 0.094941586 0.09356366 0.082351364 0.03216392 0.044381797 0.043659374
0.09366761 0.044098716 0.07288106 0.055092037 0.088629276 0.09477839 0.052757114 0.07681581
00000000: e8d2 ba3d 7437 603d 6c92 ba3d a4f2 773d
00000010: 4b9e 553d f8ec 6f3d ef25 813d 231c 523d
00000020: b404 903d 51eb 913d eb5e 833d f97f a83d
00000030: 435f 9a3d ffc3 833d b4c8 163d a9fb 9c3d
00000040: 1877 493d 53e8 ce3d 5105 1a3d 20d0 4b3d
00000050: a9a8 993d 60cc 763d 8cf5 003d 5db4 a93d
00000060: c860 813d d772 a23d 0c16 973d f7c8 8a3d
00000070: dc9c 4c3d f67e 693d f137 683d 8b54 3c3d
00000080: 2bbe 533d 7eae 823d 6e10 673d 10f0 cb3d
00000090: 087d 503d 6df2 ff3c f137 163e 2acf 713d
000000a0: 1865 983d e204 9c3d d3db 8a3d 52c6 153d
000000b0: f8e6 9a3d 6a54 923d 4fa4 a13d ba58 b03d
000000c0: 1a82 4c3d 628f 443d bc70 c23d 4e9e bf3d
000000d0: d5a7 a83d 51be 033d b0c9 353d 2cd4 323d
000000e0: ced4 bf3d dba0 343d aa42 953d 30a8 613d
000000f0: 4483 b53d 2c1b c23d d817 583d 9b51 9d3d

_encoder.res_tower.0.conv1.weight f4 [64, 64, 3, 3]
-0.032182805 -0.00022678648 0.040245194 0.042022943 0.12668529 0.044036776 0.020533483 -0.014951519
-0.056312706 0.0069307107 0.02835426 0.07831678 0.009075375 0.043563783 -0.04012998 -0.0050110416
0.02344681 -0.004145552 -0.024671607 0.00987642 -0.016285796 0.03513884 0.028451318 -0.010838983
-0.0010896486 -0.03196403 0.0021468676 -0.037365012 0.014333236 0.0558946 -0.019213425 0.0021235289
0.024710188 -0.037315328 -0.0062016677 -0.018991124 -0.007032918 -0.007405569 0.026707372 -0.026944453
0.003594605 0.04121035 0.03547085 0.01017217 0.01940043 0.1053608 -0.016878616 -0.033914074
-0.03611851 -0.017239159 -0.0098581035 -0.0025116755 -0.012764845 -0.048266742 -0.006511925 0.041694615
0.040694617 0.021998083 0.063181646 0.049210057 -0.002652132 -0.016208818 -0.0047644693 0.005902708
-0.04808084 0.0599572 -0.02943461 0.043595504 0.033047475 0.0082279695 0.024092477 0.006699391
0.05240409 0.036489952 -0.021012671 -0.052151833 0.031761684 0.011982063 0.046471454 0.016370922
0.03644142 -0.030462412 0.00804234 0.014229824 0.039384328 0.011710773 -0.0015612808 -0.031498298
0.07798661 0.009960024 -0.06162196 0.009705159 0.026607012 0.013155922 0.012786705 0.0335195
0.056846123 0.0021231382 -0.051580425 0.051603362 -0.019162344 0.023175886 -0.008805895 -0.0062844
0.024424408 0.020643182 -0.04064801 -0.023295231 -0.017468108 0.013538362 -0.038751267 0.03235762
-0.016871378 -0.039358493 0.028413126 0.06132159 -0.006328396 0.018289687 0.023534557 -0.045247532
-0.014095102 0.075772434 0.0008338214 0.0004978824 0.06827188 0.058594923 -0.016095938 0.00030780246
0.020164097 -0.01128044 0.096077055 0.0074315905 -0.0012854546 -0.050446305 -0.036433622 0.036595024
0.036864966 0.043514315 0.032577086 0.010462666 0.04540587 0.020750742 0.071265526 -0.05120045
-0.023787476 0.011730288 0.009981682 0.0077007255 0.08488701 -0.006026803 -0.014355243 0.043209765
-0.037602745 -0.029129757 0.08676423 0.068234675 -0.0013566989 0.065691866 -0.010440182 -0.007204113
0.07903106 -0.07349797 -0.031790588 -0.03084675 0.001629085 -0.06266125 -0.05604694 -0.002914597
0.048026215 -0.026137851 0.083502494 0.002716534 0.0163912 -0.0036918803 0.04672607 0.016243622
-0.07402435 -0.016391652 0.053154785 -0.053169645 -0.04590995 -0.0010178287 -0.013934205 0.0069333217
0.07036059 0.014171821 -0.04903298 -0.045451436 -0.017903313 -0.0068656974 -0.00083544856 -0.024365926
-0.0039995755 0.068165205 -0.0022242456 0.006770189 -0.05091632 0.006410841 0.0034908275 0.043772597
0.033121947 0.0077018007 0.019928815 0.0021495149 0.0022245173 0.013231837 -0.023569375 -0.019146586
0.012183038 0.10072283 0.044152398 -0.0071504405 0.02642451 0.0361272 -0.019417765 -0.0017374402
-0.018679949 0.025079658 0.05687412 0.07693146 0.050659187 0.01705506 -0.02236026 0.03226006
0.048044063 0.039956685 -0.027058017 0.05731178 -0.0043752594 0.0022547462 0.035237927 -0.012889183
-0.056938663 -0.06418065 -0.0051912293 -0.011239106 0.03728388 0.027903879 0.0321114 0.06074348
0.031514067 -0.012929121 -0.009583515 0.0037155994 -0.06640129 -0.007303027 0.023153208 0.054553382
0.000296734 0.0084400065 0.084533 -0.017105032 0.00954567 -0.026180813 -0.012969424 -0.015581326
00000000: 1ed2 03bd 88cd 6db9 25d8 243d 4020 2c3d
00000010: cab9 013e e85f 343d d635 a83c 37f7 74bc
00000020: 27a8 66bd 041b e33b 3147 e83c 8c64 a03d
00000030: e2b0 143c f06f 323d 555f 24bd aa33 a4bb
00000040: 8613 c03c 69d7 87bb 1c1c cabc b5d0 213c
00000050: ca69 85bc bfed 0f3d bd12 e93c fd95 31bc
00000060: 8ad2 8eba b7ec 02bd 76b2 0c3b 0e0c 19bd
00000070: f3d5 6a3c bcf1 643d 7965 9dbc e72a 0b3b
00000080: 056d ca3c f5d7 18bd 5c37 cbbb 4693 9bbc
00000090: 6474 e6bb 6aaa f2bb 6bc9 da3c 9dba dcbc
000000a0: 7793 6b3b 2fcc 283d e249 113d 2ca9 263c
000000b0: a7ed 9e3c 67c7 d73d 0645 8abc 7ce9 0abd
000000c0: 01f1 13bd 2339 8dbc e283 21bc ec9a 24bb
000000d0: a423 51bc 59b3 45bd fc61 d5bb f9c7 2a3d
000000e0: 66af 263d 5335 b43c 6165 813d 7c90 493d
000000f0: 64cf 2dbb 5bc8 84bc 441f 9cbb 816b c13b
00000100: 6af0 44bd ae95 753d da20 f1bc 3391 323d
00000110: ca5c 073d 9bce 063c 965d c53c 9186 db3b
00000120: aca5 563d 7d76 153d c422 acbc 299d 55bd
00000130: 8a18 023d 6a50 443c da58 3e3d 501c 863c
00000140: 9943 153d 4f8c f9bc 05c4 033c 3524 693c
00000150: 7651 213d 8bde 3f3c e4a3 ccba 5c04 01bd
00000160: 72b7 9f3d 5e2f 233c 4f67 7cbd 6302 1f3c
00000170: f3f6 d93c f08b 573c 547f 513c be4b 093d
00000180: 7bd7 683d 5924 0b3b ff45 53bd 0c5e 533d
00000190: 59fa 9cbc 5bdb bd3c 9a46 10bc 5eed cdbb
000001a0: b215 c83c e41b a93c 877e 26bd a4d5 bebc
000001b0: 4719 8fbc 02d0 5d3c a6b9 1ebd 6c89 043d
000001c0: d835 8abc 5f36 21bd a5c2 e83c 592c 7b3d
000001d0: 6f5e cfbb 41d4 953c 8bcb c03c 7a55 39bd
000001e0: 25ef 66bc 942e 9b3d cf94 5a3a 5384 023a
000001f0: 21d2 8b3d 3b01 703d a1db 83bc 8c60 a139
00000200: 2d2f a53c 98d1 38bc 0cc4 c43d b384 f33b
00000210: b37c a8ba c9a0 4ebd 6c3b 15bd aae4 153d
00000220: b8ff 163d 113c 323d 8d6f 053d 9a6b 2b3c
00000230: 81fb 393d 76fd a93c a9f3 913d 90b7 51bd
00000240: f4dd c2bc 6530 403c 358a 233c 5e56 fc3b
00000250: 3ed9 ad3d 7d7c c5bb 4132 6bbc b9fc 303d
00000260: 5605 1abd 87a1 eebc 72b1 b13d 9fbe 8b3d
00000270: 43d3 b1ba 7589 863d 4c0d 2bbc 7b10 ecbb
00000280: 09db a13d 1b86 96bd d936 02bd 53b2 fcbc
00000290: 0687 d53a 8b54 80bd 7a91 65bd d302 3fbb
000002a0: 23b7 443d 0c1f d6bc 5b03 ab3d e107 323b
000002b0: d646 863c 79f3 71bb d663 3f3d 5811 853c
000002c0: 149a 97bd c947 86bc d5b8 593d 6ac8 59bd
000002d0: 120c 3cbd aa68 85ba 4b4c 64bc eb30 e33b
000002e0: 3719 903d ed30 683c ced6 48bd 492b 3abd
000002f0: f8a9 92bc a5f9 e0bb 0102 5bba 0d9b c7bc
00000300: df0e 83bb 339a 8b3d a6c4 11bb 76d8 dd3b
00000310: a28d 50bd 0812 d23b 5ec6 643b e54a 333d
00000320: e1aa 073d 635f fc3b c141 a33c e0de 0c3b
00000330: 35c9 113b 59ca 583c 9014 c1bc 4dd9 9cbc
00000340: 5d9b 473c c547 ce3d 25d9 343d 3e4e eabb
00000350: 3778 d83c 1dfa 133d 0112 9fbc d2ba e3ba
00000360: b106 99bc db73 cd3c d6f4 683d 3e8e 9d3d
00000370: 0280 4f3d 0eb7 8b3c dd2c b7bc 2023 043d
00000380: dac9 443d 9fa9 233d c6a8 ddbc c2bf 6a3d
00000390: 565e 8fbb 5dc4 133b a555 103d 272d 53bc
000003a0: 8438 69bd 2571 83bd 301b aabb 3a24 38bc
000003b0: fbb6 183d ad96 e43c 3e87 033d 28ce 783d
000003c0: e514 013d aad4 53bc 2d04 1dbc 6a81 733b
000003d0: 66fd 87bd 3b4e efbb ccab bd3c 5e73 5f3d
000003e0: f792 9b39 f447 0a3c a31f ad3d da1f 8cbc
000003f0: 7165 1c3c 2579 d6bc b57d 54bc d148 7fbc

_encoder.res_tower.0.conv1.bias f4 [64]
-0.025924686 0.008405471 0.037315708 -0.034820177 0.0077110035 0.024532989 -0.028203988 -0.034752462
-0.019640286 0.0041229855 -0.012211556 0.032581743 0.03817735 0.006028846 0.01909353 -0.021931257
-0.010897503 -0.023594366 0.029473208 -0.013785611 -0.005599249 0.025448784 -0.016889408 0.0064772964
0.0050934656 0.01815402 0.020835992 -0.006019486 -0.011445178 -0.020543434 0.037882213 0.000569159
0.023553433 -0.03598607 -0.013370537 -0.007746851 -0.03719735 0.016191926 0.026119737 0.036704753
0.029152092 0.03795209 0.0035844937 0.00041893366 0.02436598 0.021142693 0.0041656843 -0.005300668
-0.019651722 0.017351797 0.011665856 0.038636915 -0.009328628 0.021717392 0.037672766 0.0046479246
-0.0041492158 -0.014846956 0.009091947 0.008389849 0.01890459 0.012530299 0.029596454 0.035878014
00000000: 0260 d4bc 1ab7 093c 5bd8 183d 9a9f 0ebd
00000010: 96ac fc3b 68f9 c83c 0d0c e7bc 9958 0ebd
00000020: aae4 a0bc 1c1a 873b fa12 48bc 6f74 053d
00000030: da5f 1c3d a08d c53b 096a 9c3c 2ea9 b3bc
00000040: 718b 32bc f948 c1bc cc71 f13c 0bdd 61bc
00000050: e879 b7bb f879 d03c a85b 8abc 803f d43b
00000060: 16e7 a63b bdb7 943c 3eb0 aa3c 1c3f c5bb
00000070: 8e84 3bbc b44a a8bc 612a 1b3d 9d33 153a
00000080: 21f3 c03c 2166 13bd 1910 5bbc 4cd9 fdbb
00000090: 405c 18bd eea4 843c 0ff9 d53c b957 163d
000000a0: 5ed0 ee3c a773 1b3d d3e9 6a3b 53a4 db39
000000b0: 2a9b c73c 7133 ad3c 4b80 883b 3ab1 adbb
000000c0: a6fc a0bc 5b25 8e3c 2522 3f3c be41 1e3d
000000d0: 1ad7 18bc ace8 b13c c24e 1a3d 9e4d 983b
000000e0: 25f6 87bb a640 73bc 64f6 143c 9475 093c
000000f0: ccdd 9a3c e24b 4d3c 4374 f23c d3f4 123d

_encoder.res_tower.0.bn1.weight f4 [64]
0.97469425 0.9415879 0.9613468 0.98199147 0.9248759 0.9495986 0.9927787 0.95448124
0.9866214 0.9491233 0.96991426 0.9630157 0.9835545 0.9714049 0.9449662 1.0093838
0.96348375 0.96517104 0.91477036 0.96702313 1.0058264 0.9538889 0.9722567 0.97803396
0.9370786 0.98610026 0.9773437 0.9565431 0.9593298 0.9670855 0.979634 0.95042855
0.96743596 0.97087544 0.96486676 0.9792643 0.9628036 0.95061326 1.02317 0.9708141
0.928744 1.0043684 0.9755475 0.94898796 0.91717947 0.9549664 1.0023323 0.9423087
0.9840551 0.9563624 0.9841521 0.9937734 1.0038365 1.0170828 0.9478808 0.9751555
0.9533001 0.9645463 0.9583032 0.98066866 0.9935941 0.96718377 0.9571633 0.94075906
00000000: 9085 793f e80b 713f d31a 763f cb63 7b3f
00000010: abc4 6c3f e518 733f bf26 7e3f e258 743f
00000020: 3893 7c3f bff9 723f 4d4c 783f 3288 763f
00000030: 3aca 7b3f fead 783f 4ee9 713f 7d33 813f
00000040: dfa6 763f 7315 773f 642e 6a3f d48e 773f
00000050: ebbe 803f 1032 743f d1e5 783f 6f60 7a3f
00000060: 62e4 6f3f 1171 7c3f 3233 7a3f 02e0 743f
00000070: a396 753f ea92 773f 4bc9 7a3f 494f 733f
00000080: e2a9 773f 4b8b 783f 8201 773f 11b1 7a3f
00000090: 4c7a 763f 645b 733f 3cf7 823f 4687 783f
000000a0: 2bc2 6d3f 258f 803f 7bbd 793f e0f0 723f
000000b0: 46cc 6a3f ae78 743f 6d4c 803f 253b 713f
000000c0: 09eb 7b3f 2bd4 743f 64f1 7b3f ef67 7e3f
000000d0: b77d 803f c52f 823f 51a8 723f caa3 793f
000000e0: 7a0b 743f 82ec 763f 5c53 753f 1a0d 7b3f
000000f0: 2f5c 7e3f 5b99 773f a708 753f 96d5 703f

_encoder.res_tower.0.bn1.bias f4 [64]
-0.1914843 -0.1544374 -0.07773689 -0.08962018 -0.12656344 -0.05407348 -0.035155665 -0.090168945
-0.05294708 -0.061064485 -0.041366246 -0.051478565 -0.07047324 -0.10033968 -0.10550044 -0.044344638
-0.06079768 -0.06793004 -0.10510938 -0.05779766 -0.038885135 -0.11052239 -0.105055526 -0.07581132
-0.071093336 -0.038482543 -0.08266077 -0.051578786 -0.048787132 -0.078960635 -0.058798008 -0.05768404
-0.04056492 -0.05851558 -0.028846975 -0.08867047 -0.08908024 -0.084318146 -0.049470656 -0.07567935
-0.06418333 -0.1544224 -0.084985904 -0.06909909 -0.09892455 -0.06231482 -0.06469931 -0.12380587
-0.07174962 -0.10198273 -0.06283223 -0.076452926 -0.060258713 -0.028553572 -0.055502567 -0.054736257
-0.057542987 -0.06650805 -0.13066895 -0.07303046 -0.06972744 -0.05721974 -0.06804199 -0.08023687
00000000: 7614 44be d624 1ebe 8534 9fbd c98a b7bd
00000010: d999 01be 277c 5dbd 63ff 0fbd 7faa b8bd
00000020: 0adf 58bd c11e 7abd a76f 29bd 30db 52bd
00000030: 4654 90bd e47e cdbd 9d10 d8bd b9a2 35bd
00000040: fd06 79bd e81e 8bbd 9643 d7bd 3dbd 6cbd
00000050: 0546 1fbd 9059 e2bd 5a27 d7bd f742 9bbd
00000060: 6299 91bd df9f 1dbd 0d4a a9bd 4744 53bd
00000070: 04d5 47bd 1db6 a1bd 2ed6 70bd 1a46 6cbd
00000080: 6727 26bd 08ae 6fbd 7e50 ecbc dd98 b5bd
00000090: b36f b6bd feae acbd bea1 4abd c6fd 9abd
000000a0: 8d72 83bd e820 1ebe 170d aebd d383 8dbd
000000b0: f498 cabd d33d 7fbd 1281 84bd ef8d fdbd
000000c0: 77f1 92bd 52dc d0bd 2fae 80bd 5a93 9cbd
000000d0: d7d1 76bd 2ee9 e9bc a956 63bd 2033 60bd
000000e0: 32b2 6bbd 5f35 88bd 15ce 05be fe90 95bd
000000f0: 43cd 8ebd 3f5f 6abd 9959 8bbd 3a53 a4bd

_encoder.res_tower.0.bn1.running_mean f4 [64]
2.1436281 1.0758753 -0.48000145 -0.33918598 -0.019122036 0.3240963 -0.8059747 -0.1527647
-0.083308384 -0.51143235 -0.7004934 -0.19720393 -0.21208398 -0.09472744 -0.67763555 -1.3926016
-0.16898134 -1.0553911 0.5486324 -0.39951763 -1.1875566 0.055148512 -0.11937685 -0.54460657
0.2136827 -0.5310759 -0.40627077 -0.34979245 -0.6913634 0.04271581 -0.9100222 -0.568827
-0.18687738 -0.6563086 -0.86679894 0.23810776 -0.010739039 0.28419703 -1.0681133 -1.1564904
0.061026786 1.9854428 0.25786158 -0.2605861 -0.05724268 0.27619502 -0.91296446 0.7959469
-0.14824176 0.12856211 -0.24326298 -0.067536846 -0.5709492 -0.89226496 -0.07078537 -0.08853862
-0.43471336 -0.19054647 0.0031248855 -0.3906178 -0.3620329 -0.3142805 -0.31997856 -0.14211906
00000000: 3431 0940 48b6 893f c0c2 f5be c9a9 adbe
00000010: d1a5 9cbc f3ef a53e 5c54 4ebf 596e 1cbe
00000020: 969d aabd 3bed 02bf 8953 33bf d4ef 49be
00000030: 8b2c 59be 7600 c2bd 8679 2dbf c540 b2bf
00000040: 7209 2dbe 0e17 87bf 2c73 0c3f 938d ccbe
00000050: db01 98bf 68e3 613d da7b f4bd 566b 0bbf
00000060: a3cf 5a3e 97f4 07bf b902 d0be ff17 b3be
00000070: 31fd 30bf c6f6 2e3d 37f7 68bf a59e 11bf
00000080: c95c 3fbe d703 28bf 89e6 5dbf 85d2 733e
00000090: cbf2 2fbc 4682 913e f0b7 88bf e107 94bf
000000a0: 39f7 793d fd22 fe3f 6f06 843e 8b6b 85be
000000b0: 4d77 6abd 6f69 8d3e 0ab8 69bf 2dc3 4b3f
000000c0: b0cc 17be c9a5 033e ee19 79be c250 8abd
000000d0: ba29 12bf 7a6b 64bf ecf7 90bd bc53 b5bd
000000e0: c092 debe 9d1e 43be e1ca 4c3b 0eff c7be
000000f0: 605c b9be 60e9 a0be 3bd4 a3be a987 11be

_encoder.res_tower.0.bn1.running_var f4 [64]
2.5254335 1.3533366 1.1818165 1.4840002 1.7304611 1.4290428 1.4346395 1.1570693
1.6231146 1.0027294 1.1327509 1.144357 1.2688498 1.1826853 1.4583737 1.840868
1.654263 0.9838593 1.6417682 1.5665331 1.9031602 1.3729048 1.5585295 1.7101834
1.4671016 1.3260462 1.2221385 1.3419123 1.050678 1.740627 1.2963504 0.92638797
1.5066254 0.9954175 0.87419677 1.5922207 1.9810807 1.4659224 1.7759103 2.0861404
0.978958 2.5654552 1.5659063 1.4231871 1.152894 1.6035573 1.6772581 1.8736135
1.7394439 1.3184303 1.3844374 1.6255052 1.4228072 2.0388033 1.2872102 1.3890406
1.075172 1.4388933 1.5988634 1.430587 1.4149758 1.610167 1.2791405 1.1346589
00000000: b4a0 2140 223a ad3f c345 973f b8f3 bd3f
00000010: c07f dd3f e0ea b63f 44a2 b73f d91a 943f
00000020: 38c2 cf3f 7059 803f fbfd 903f 4a7a 923f
00000030: ac69 a23f 3b62 973f fdab ba3f 90a1 eb3f
00000040: e4be d33f 34de 7b3f 7625 d23f 2884 c83f
00000050: c19a f33f 58bb af3f e57d c73f 4ae7 da3f
00000060: fcc9 bb3f e2bb a93f 096f 9c3f c8c3 ab3f
00000070: 9e7c 863f decc de3f cfee a53f c327 6d3f
00000080: 1ad9 c03f aed3 7e3f 5ccb 5f3f e3cd cb3f
00000090: 0d94 fd3f 58a3 bb3f 0751 e33f 5383 0540
000000a0: fe9c 7a3f 6b30 2440 9e6f c83f ff2a b63f
000000b0: 0892 933f 5e41 cd3f 65b0 d63f 91d2 ef3f
000000c0: 19a6 de3f 53c2 a83f 3f35 b13f 8e10 d03f
000000d0: 8c1e b63f c17b 0240 4ec3 a43f 15cc b13f
000000e0: 3c9f 893f a82d b83f 8ea7 cc3f 7a1d b73f
000000f0: ed1d b53f f419 ce3f e0ba a33f 813c 913f

_encoder.res_tower.0.conv2.weight f4 [64, 64, 3, 3]
-0.013977011 -0.031701103 0.0031162114 -0.0097758025 0.022175724 0.018317848 0.069981806 0.03963869
0.04034234 -0.006348893 0.004575704 0.00094773213 0.043854866 -0.019102259 -0.021761453 0.08331506
-0.0056249406 0.04912067 0.010614423 -0.048407264 0.03736048 0.02235606 -0.017805379 0.012345953
0.03278813 0.0214443 0.0059394245 0.0018214697 0.042665552 0.038304098 -0.0025079807 0.00079454924
0.0599239 -0.007712293 0.06191266 0.0017208444 -0.012351488 0.008475388 -0.06361656 -0.0047353934
-0.04068772 0.0029212777 0.041542757 0.025982538 0.031729802 -0.0053000846 -0.05270432 -0.036575098
0.046655305 -0.042394888 0.012449472 -0.030592993 0.0061242324 -0.008183377 0.026968796 -0.008480231
0.0044457256 0.011682724 0.035823286 -0.021008747 0.03165106 0.040042993 -0.015994562 -0.019996768
-0.034010448 0.041644603 -0.05531213 0.013227108 -0.031018734 0.026552524 -0.0030111002 0.014511373
0.018833628 0.0098773325 -0.03870782 0.056207094 -0.023736132 -0.02742396 0.019988356 0.053034488
-0.012008983 0.023477174 0.029541269 0.023336599 0.062357236 -0.04636976 0.03259817 0.026698783
0.008565072 -0.010096714 -0.008363777 -0.036086343 -0.030791739 -0.05321949 0.04021066 0.02718302
0.03665262 -0.016300647 -0.0041683875 0.012098885 -0.00084632385 -0.047512036 -0.03391404 -0.038130365
-0.02974126 -0.04643966 -0.040692315 -0.025544502 -0.062221527 0.03467457 -0.057592984 -0.026022207
0.014809279 -0.0076631717 -0.00064656965 0.04951061 -0.00034602382 -0.0008433749 0.00033662692 -0.057377603
-0.08259763 -0.046053126 0.008003078 -0.016331187 -0.064579904 -0.01765999 -0.050774235 0.0135497
0.06373134 -0.059618875 -0.000961011 0.0041098036 0.04366321 -0.025714407 -0.068010546 0.020737784
0.008625013 0.008633214 0.0039882744 -0.013729296 0.035764147 -0.03178071 0.03194213 -0.025501058
0.014139392 0.05516746 -0.041129112 0.032394145 0.028750742 0.03739917 -0.021142675 -0.020374065
0.031548787 0.037500717 0.02741703 -0.022001496 0.05076903 -0.02705083 -0.0539525 -0.01846212
0.049817264 0.02952497 -0.01572784 0.030418953 0.056168407 0.032545347 0.021838974 -0.009451239
-0.00089347485 0.04776599 -0.04938459 0.0060803914 0.017645556 0.012048882 -0.031116052 0.006203941
0.0057430696 -0.01891872 -0.03313538 -0.055351093 0.01601457 0.011047747 0.014453539 0.013064475
-0.0063015777 0.019067353 0.028440176 -0.011146586 0.030665787 -0.0019817029 -0.0036798057 -0.04249134
0.02086158 0.06264449 -0.0075842203 -0.054005664 0.05479311 -0.05976375 -0.017446466 0.047265645
0.042451728 -0.04062439 -0.027893886 -0.013503464 -0.010209368 0.033299826 -0.06377614 0.020996258
0.013442189 -0.041621536 -0.058638584 -0.067026034 0.021444142 0.053926166 0.052883074 0.037971895
0.046153408 0.00060496054 -0.039106134 0.015929766 -0.050482314 0.03123889 -0.007614913 -0.007870404
-0.045987315 -0.01239943 -0.045720767 0.0027985766 -0.08306454 0.020578196 -0.00586762 -0.040863458
-0.063277334 -0.051933046 -0.014778914 -0.015732516 -0.022762092 0.040810306 0.02515672 0.019079726
0.06497485 0.07446262 0.022734072 -0.019780979 -0.018639484 0.00031383513 -0.026031498 -0.00051138655
-0.0205803 0.009147104 -0.019866314 -0.029371897 -0.022494676 0.013949488 -0.011558277 -0.017674478
00000000: d5ff 64bc 04d9 01bd 5a39 4c3b b02a 20bc
00000010: dda9 b53c 500f 963c 9f52 8f3d 2e5c 223d
00000020: 023e 253d 600a d0bb caef 953b 3a71 783a
00000030: 29a1 333d 577c 9cbc 1345 b2bc 16a1 aa3d
00000040: 6c51 b8bb c132 493d 1ee8 2d3c b246 46bd
00000050: 4d07 193d 0e24 b73c 96dc 91bc ae46 4a3c
00000060: d94c 063d f5ab af3c 819f c23b 62be ee3a
00000070: 13c2 2e3d c2e4 1c3d ef5c 24bb 4c49 503a
00000080: c372 753d 67b7 fcbb 2198 7d3d f58d e13a
00000090: e55d 4abc 5bdc 0a3c 6649 82bd 5c2b 9bbb
000000a0: 2ba8 26bd e872 3f3b bd28 2a3d 55d9 d43c
000000b0: 1cf7 013d 55ac adbb 7ce0 57bd c5cf 15bd
000000c0: a219 3f3d 43a6 2dbd dff8 4b3c 289e fabc
000000d0: c9ad c83b 9213 06bc aaed dc3c abf0 0abc
000000e0: 73ad 913b e568 3f3c 70bb 123d 891a acbc
000000f0: 8ba4 013d 1f04 243d 0707 83bc 43d0 a3bc
00000100: 8a4e 0bbd 8893 2a3d f98e 62bd 83b6 583c
00000110: 001b febc ae84 d93c e155 45bb 1cc1 6d3c
00000120: fb48 9a3c 89d4 213c 178c 1ebd 6939 663d
00000130: 4772 c2bc 36a8 e0bc 9fbe a33c b13a 593d
00000140: 53c1 44bc 3453 c03c 8800 f23c 652c bf3c
00000150: 4d6a 7f3d 38ee 3dbd a985 053d 68b7 da3c
00000160: 8454 0c3c b06c 25bc 3908 09bc 46cf 13bd
00000170: f53e fcbc aefc 59bd efb3 243d edae de3c
00000180: 0f21 163d ef88 85bc f896 88bb 673a 463c
00000190: d5db 5dba fb9b 42bd 73e9 0abd 962e 1cbd
000001a0: f1a3 f3bc 8337 3ebd fcac 26bd b442 d1bc
000001b0: 00dc 7ebd ec06 0e3d 9fe6 6bbd 862c d5bc
000001c0: 9ea2 723c 581b fbbb 8e7e 29ba a3cb 4a3d
000001d0: 886a b5b9 ee15 5dba 4d7d b039 c704 6bbd
000001e0: f228 a9bd 34a2 3cbd 581f 033c fbc8 85bc
000001f0: 7842 84bd afab 90bc a5f8 4fbd 90ff 5d3c
00000200: 9485 823d ec32 74bd 5bec 7bba 88ab 863b
00000210: 32d8 323d 05a7 d2bc 1d49 8bbd 49e2 a93c
00000220: ed4f 0d3c 5372 0d3c 12b0 823b d7f0 60bc
00000230: 6d7d 123d 7d2c 02bd c0d5 023d 98e7 d0bc
00000240: e9a8 673c 46f7 613d 0077 28bd b9af 043d
00000250: ad86 eb3c df2f 193d 6733 adbc 83e7 a6bc
00000260: 4d39 013d 5a9a 193d ae99 e03c 7b3c b4bc
00000270: 30f3 4f3d b499 ddbc 4cfd 5cbd df3d 97bc
00000280: 300d 4c3d 5ade f13c acd7 80bc 2b31 f93c
00000290: d810 663d 454e 053d a6e7 b23c 5fd9 1abc
000002a0: 1538 6aba 45a6 433d 7f47 4abd 053e c73b
000002b0: 6a8d 903c ad68 453c 17e7 febc 6e4a cb3b
000002c0: 5c30 bc3b 6efb 9abc f7b8 07bd d4b7 62bd
000002d0: fd30 833c 9c01 353c 89ce 6c3c 610c 563c
000002e0: 777d cebb 2333 9c3c 5ffb e83c 2ca0 36bc
000002f0: d136 fb3c 75df 01bb e528 71bb 660b 2ebd
00000300: e7e5 aa3c c14b 803d 0d85 f8bb 0b35 5dbd
00000310: bd6e 603d d5ca 74bd e4eb 8ebc 9f99 413d
00000320: dde1 2d3d c365 26bd b881 e4bc a23d 5dbc
00000330: 3145 27bc 6665 083d 119d 82bd 5800 ac3c
00000340: a13c 5c3c 587b 2abd 032f 70bd f244 89bd
00000350: a0ab af3c afe1 5c3d ec9b 583d 6b88 1b3d
00000360: 5b0b 3d3d 3796 1e3a c12d 20bd 247f 823c
00000370: 8bc6 4ebd b3e8 ff3c 8586 f9bb def2 00bc
00000380: 325d 3cbd fb26 4bbc b345 3bbd 5368 373b
00000390: be1d aabd 9b93 a83c 2a45 c0bb 7160 27bd
000003a0: 8c97 81bd bfb7 54bd 4223 72bc 7ae1 80bc
000003b0: 9177 babc b528 273d 7715 ce3c 164d 9c3c
000003c0: 8911 853d dc7f 983d ce3c ba3c b80b a2bc
000003d0: d5b1 98bc 3d8a a439 0240 d5bc 920e 06ba
000003e0: 0498 a8bc bcdd 153c aebe a2bc 559d f0bc
000003f0: c146 b8bc 658c 643c ed5e 3dbc 11ca 90bc

_encoder.res_tower.0.conv2.bias f4 [64]
-0.018587602 0.02661325 0.034037217 0.03347679 -0.0372483 -0.011833357 0.030867802 -0.017165773
0.02056384 -0.029227989 -0.029678643 -0.038256086 0.006376788 0.03486498 0.015490842 -0.022073425
0.037230793 -0.026074486 -0.0066267382 0.01568427 -0.0056156893 0.020710742 0.03950389 0.02865973
0.028097795 0.023427784 0.002596459 -0.0016687121 0.02463788 0.035419792 -0.014746223 0.016069487
-6.5100896e-05 -0.018280534 -0.023741934 -0.033512473 0.029647512 0.0064284746 0.008207787 0.011909175
0.012512358 -0.023980621 0.032940507 0.032572057 0.017755564 -0.01186491 -0.021995751 0.023002885
0.028821003 -0.0148736825 0.022012573 0.017811421 -0.03996933 -0.020523904 0.016480858 -0.02833621
-0.0135761835 -0.035180088 -0.02177752 -0.024195887 -0.019365694 -0.0076389653 0.04042502 0.022146033
00000000: 0745 98bc 0804 da3c 9c6a 0b3d f51e 093d
00000010: ac91 18bd b2e0 41bc 79de fc3c 3c9f 8cbc
00000020: 8075 a83c 896f efbc a020 f3bc 6ab2 1cbd
00000030: 60f4 d03b 95ce 0e3d 4dcd 7d3c 54d3 b4bc
00000040: 517f 183d 299a d5bc 1c25 d9bb 4c7c 803c
00000050: d103 b8bb 93a9 a93c d5ce 213d cfc7 ea3c
00000060: 592d e63c a0eb bf3c 5a29 2a3b b0b8 daba
00000070: 61d5 c93c 5814 113d 249a 71bc 28a4 833c
00000080: c786 88b8 0fc1 95bc 727e c2bc 6044 09bd
00000090: 57df f23c f4a5 d23b f479 063c b31e 433c
000000a0: a200 4d3c 0273 c4bc a0ec 063d 476a 053d
000000b0: 1e74 913c 0a65 42bc 6f30 b4bc 8c70 bc3c
000000c0: 061a ec3c bfb0 73bc b653 b43c 42e9 913c
000000d0: e1b6 23bd bf21 a8bc dd02 873c 5721 e8bc
000000e0: a46e 5ebc ff18 10bd c566 b2bc 7436 c6bc
000000f0: cea4 9ebc 4950 fabb b594 253d 996b b53c

_encoder.res_tower.0.bn2.weight f4 [64]
0.9867983 0.98771536 0.93516195 0.9673469 0.9744884 0.99098927 0.97522384 0.9986315
0.94973105 0.9707384 0.96517444 0.97154313 0.9780204 0.9378606 0.95671827 0.9664931
0.99411356 0.97504914 0.9497756 0.97579116 0.99045086 0.98808867 0.9480901 1.0116544
0.9566733 0.97365713 0.9533687 0.9473607 1.0103643 0.94889843 0.929571 0.94496363
0.97854185 0.96345925 0.9949448 0.9564965 0.9857546 0.99893373 0.9893762 0.8874724
0.96202374 0.9890791 0.9740922 0.9398699 0.93838763 0.9624679 0.98571366 0.98201287
0.9853907 1.0095932 0.9639913 0.98797095 0.97735226 0.9481006 0.927833 0.96882373
0.96929014 0.9723049 0.9918885 0.96938664 1.0473979 0.977693 0.948496 0.92666703
00000000: d09e 7c3f eada 7c3f c666 6f3f 0ca4 773f
00000010: 1278 793f 79b1 7d3f 45a8 793f 50a6 7f3f
00000020: 9321 733f 5082 783f ac15 773f 0db7 783f
00000030: 8c5f 7a3f a217 703f 7deb 743f 186c 773f
00000040: 3a7e 7e3f d29c 793f 7e24 733f 73cd 793f
00000050: 308e 7d3f 61f3 7c3f 08b6 723f e47d 813f
00000060: 8be8 743f 9841 793f f90f 743f 3b86 723f
00000070: 9e53 813f 02eb 723f 5df8 6d3f 23e9 713f
00000080: b881 7a3f 44a5 763f b4b4 7e3f f4dc 743f
00000090: 6a5a 7c3f 1fba 7f3f c247 7d3f 6431 633f
000000a0: 3047 763f 4a34 7d3f 1b5e 793f 509b 703f
000000b0: 2c3a 703f 4c64 763f bb57 7c3f 3265 7b3f
000000c0: 9142 7c3f 5a3a 813f 22c8 763f aaeb 7c3f
000000d0: c233 7a3f b9b6 723f 7786 6d3f d504 783f
000000e0: 6623 783f f9e8 783f 68ec 7d3f b929 783f
000000f0: 2211 863f 174a 7a3f a2d0 723f 0d3a 6d3f

_encoder.res_tower.0.bn2.bias f4 [64]
-0.035124805 -0.03746322 -0.08447344 -0.01836191 -0.07636522 -0.03344299 -0.047807384 -0.053609654
-0.09389141 -0.076673105 -0.09729475 -0.089165285 -0.05163666 -0.07491491 -0.017027397 -0.037397053
-0.03449453 -0.03833796 -0.057794407 -0.038455896 -0.05348016 -0.0670761 -0.053972527 -0.02406652
-0.064181775 -0.09276617 -0.0672227 -0.09030135 -0.08603666 -0.07520773 -0.08143854 -0.023122488
-0.061686613 -0.04511319 -0.10458695 -0.07369618 -0.059509087 -0.063292064 -0.047588527 -0.043962736
-0.080195434 -0.045375485 -0.03730295 -0.060675602 -0.089618795 -0.07439456 -0.09859396 -0.07714044
-0.06439795 -0.10162841 -0.15113902 -0.010242923 -0.040226404 -0.049944386 -0.046821635 -0.02150461
-0.013966064 -0.08620058 -0.13378663 -0.06581166 -0.051456466 -0.048156247 -0.058820546 -0.10904688
00000000: 07df 0fbd 0973 19bd 6900 adbd b76b 96bc
00000010: 5e65 9cbd 84fb 08bd add1 43bd cc95 5bbd
00000020: 244a c0bd ca06 9dbd 7842 c7bd 4a9c b6bd
00000030: f680 53bd fd6c 99bd 0a7d 8bbc a72d 19bd
00000040: 234a 0dbd 4408 1dbd d4b9 6cbd ee83 1dbd
00000050: 030e 5bbd 325f 89bd 4c12 5dbd 2727 c5bc
00000060: bc71 83bd 31fc bdbd 0eac 89bd eaef b8bd
00000070: fd33 b0bd 8306 9abd 40c9 a6bd 5f6b bdbc
00000080: 1aab 7cbd 9cc8 38bd af31 d6bd 06ee 96bd
00000090: cdbf 73bd 459f 81bd 30ec 42bd 4512 34bd
000000a0: 813d a4bd a5db 39bd faca 18bd fb86 78bd
000000b0: 0f8a b7bd 2d5c 98bd a1eb c9bd cffb 9dbd
000000c0: 13e3 83bd 8e22 d0bd 30c4 1abe efd1 27bc
000000d0: 71c4 24bd 7c92 4cbd 0bc8 3fbd 702a b0bc
000000e0: ebd1 64bc ee89 b0bd 5dff 08be 43c8 86bd
000000f0: 04c4 52bd 7c3f 45bd d0ed 70bd f853 dfbd

_encoder.res_tower.0.bn2.running_mean f4 [64]
-0.3227476 0.11199608 0.047558997 -0.62944615 -0.04376589 -0.25584814 -0.4106671 -0.1552803
0.17769442 -0.27041623 0.16150887 0.28280252 -0.15904684 0.40607214 -0.26044044 -0.16098765
-0.20682336 0.0435214 -0.39101887 -0.39475054 -0.35858768 -0.1589347 -0.13269952 -0.34859493
0.013051635 0.3152356 0.122335486 0.462316 0.450055 -0.041587044 0.18142188 -0.3530793
-0.23388658 0.37572518 0.61969686 -0.092594475 -0.41419756 -0.037344985 0.17400987 0.42434195
0.21297383 -0.27644888 -0.3584685 -0.25913703 -0.14911401 0.018871803 0.25345165 0.19426945
-0.10493681 0.32990232 0.3739619 -0.25874 -0.22151273 -0.21229446 -0.20660095 -0.5643908
-0.0028585177 -0.17101257 0.5266826 -0.29747272 -0.27510723 -0.24873702 0.03047906 -0.44679335
00000000: 2c3f a5be 335e e53d 39cd 423d 6223 21bf
00000010: dd43 33bd 87fe 82be f542 d2be cd01 1fbe
00000020: 87f5 353e ff73 8abe 9562 253e 7ecb 903e
00000030: 2ddd 22be b0e8 cf3e 7358 85be f2d9 24be
00000040: 81c9 53be 7f43 323d a033 c8be be1c cabe
00000050: ce98 b7be c7bf 22be 62e2 07be 097b b2be
00000060: 86d6 553c 9066 a13e 078b fa3d afb4 ec3e
00000070: 9c6d e63e 2d57 2abd a8c6 393e cfc6 b4be
00000080: f77f 6fbe 0d5f c03e 74a4 1e3f 2ca2 bdbd
00000090: b411 d4be 0ef7 18bd a52f 323e 5943 d93e
000000a0: d015 5a3e b58a 8dbe 2f89 b7be 9cad 84be
000000b0: 58b1 18be 0a99 9a3c 6ac4 813e 92ee 463e
000000c0: 1ce9 d6bd f5e8 a83e ef77 bf3e 9279 84be
000000d0: 3cd4 62be b863 59be 338f 53be ea7b 10bf
000000e0: f855 3bbb eb1d 2fbe acd4 063f 584e 98be
000000f0: dbda 8cbe ebb4 7ebe 39af f93c 19c2 e4be

_encoder.res_tower.0.bn2.running_var f4 [64]
0.2800188 0.38442168 0.25660595 0.43473795 0.2995036 0.33898178 0.45306858 0.2736206
0.39384836 0.31625134 0.30654496 0.29878604 0.45468163 0.36269584 0.41208464 0.30224454
0.44229978 0.32437372 0.35250065 0.27563047 0.30490974 0.4008247 0.3544512 0.41187477
0.25476092 0.39510164 0.4279657 0.2793616 0.39938685 0.30715474 0.34195718 0.48091495
0.3794636 0.48078746 0.48015115 0.34763116 0.379311 0.29800144 0.46984684 0.4732916
0.30182892 0.27546176 0.27005222 0.33445585 0.3753814 0.27226803 0.4090091 0.47057265
0.40551195 0.373566 0.33888635 0.3618598 0.4002121 0.2601435 0.35742575 0.2324024
0.33856815 0.4998699 0.38175437 0.26021302 0.37578064 0.32042235 0.34151495 0.29303735
00000000: a05e 8f3e ebd2 c43e db61 833e f995 de3e
00000010: 8958 993e 058f ad3e 9bf8 e73e 0018 8c3e
00000020: 7ea6 c93e b2eb a13e 76f3 9c3e 7cfa 983e
00000030: 08cc e83e 45b3 b93e c2fc d23e ccbf 9a3e
00000040: 1e75 e23e 5014 a63e f77a b43e 701f 8d3e
00000050: 211d 9c3e e538 cd3e a17a b53e 40e1 d23e
00000060: 0670 823e c34a ca3e 521e db3e 7c08 8f3e
00000070: 6f7c cc3e 6343 9d3e 0315 af3e 7c3a f63e
00000080: 0e49 c23e c629 f63e 5fd6 f53e b6fc b13e
00000090: 0d35 c23e a593 983e c48f f03e 4753 f23e
000000a0: 5289 9a3e 5309 8d3e 4944 8a3e cc3d ab3e
000000b0: fe31 c03e b766 8b3e a469 d13e e6ee f03e
000000c0: 439f cf3e 0b44 bf3e 8382 ad3e b045 b93e
000000d0: 9ae8 cc3e 8731 853e 8200 b73e e5fa 6d3e
000000e0: ce58 ad3e f3ee ff3e 4f75 c33e a43a 853e
000000f0: 5266 c03e 660e a43e 0cdb ae3e fe08 963e

_encoder.res_tower.1.conv1.weight f4 [64, 64, 3, 3]
-0.032182805 -0.00022678648 0.040245194 0.042022943 0.12668529 0.044036776 0.020533483 -0.014951519
-0.056312706 0.0069307107 0.02835426 0.07831678 0.009075375 0.043563783 -0.04012998 -0.0050110416
0.02344681 -0.004145552 -0.024671607 0.00987642 -0.016285796 0.03513884 0.028451318 -0.010838983
-0.0010896486 -0.03196403 0.0021468676 -0.037365012 0.014333236 0.0558946 -0.019213425 0.0021235289
0.024710188 -0.037315328 -0.0062016677 -0.018991124 -0.007032918 -0.007405569 0.026707372 -0.026944453
0.003594605 0.04121035 0.03547085 0.01017217 0.01940043 0.1053608 -0.016878616 -0.033914074
-0.03611851 -0.017239159 -0.0098581035 -0.0025116755 -0.012764845 -0.048266742 -0.006511925 0.041694615
0.040694617 0.021998083 0.063181646 0.049210057 -0.002652132 -0.016208818 -0.0047644693 0.005902708
-0.04808084 0.0599572 -0.02943461 0.043595504 0.033047475 0.0082279695 0.024092477 0.006699391
0.05240409 0.036489952 -0.021012671 -0.052151833 0.031761684 0.011982063 0.046471454 0.016370922
0.03644142 -0.030462412 0.00804234 0.014229824 0.039384328 0.011710773 -0.0015612808 -0.031498298
0.07798661 0.009960024 -0.06162196 0.009705159 0.026607012 0.013155922 0.012786705 0.0335195
0.056846123 0.0021231382 -0.051580425 0.051603362 -0.019162344 0.023175886 -0.008805895 -0.0062844
0.024424408 0.020643182 -0.04064801 -0.023295231 -0.017468108 0.013538362 -0.038751267 0.03235762
-0.016871378 -0.039358493 0.028413126 0.06132159 -0.006328396 0.018289687 0.023534557 -0.045247532
-0.014095102 0.075772434 0.0008338214 0.0004978824 0.06827188 0.058594923 -0.016095938 0.00030780246
0.020164097 -0.01128044 0.096077055 0.0074315905 -0.0012854546 -0.050446305 -0.036433622 0.036595024
0.036864966 0.043514315 0.032577086 0.010462666 0.04540587 0.020750742 0.071265526 -0.05120045
-0.023787476 0.011730288 0.009981682 0.0077007255 0.08488701 -0.006026803 -0.014355243 0.043209765
-0.037602745 -0.029129757 0.08676423 0.068234675 -0.0013566989 0.065691866 -0.010440182 -0.007204113
0.07903106 -0.07349797 -0.031790588 -0.03084675 0.001629085 -0.06266125 -0.05604694 -0.002914597
0.048026215 -0.026137851 0.083502494 0.002716534 0.0163912 -0.0036918803 0.04672607 0.016243622
-0.07402435 -0.016391652 0.053154785 -0.053169645 -0.04590995 -0.0010178287 -0.013934205 0.0069333217
0.07036059 0.014171821 -0.04903298 -0.045451436 -0.017903313 -0.0068656974 -0.00083544856 -0.024365926
-0.0039995755 0.068165205 -0.0022242456 0.006770189 -0.05091632 0.006410841 0.0034908275 0.043772597
0.033121947 0.0077018007 0.019928815 0.0021495149 0.0022245173 0.013231837 -0.023569375 -0.019146586
0.012183038 0.10072283 0.044152398 -0.0071504405 0.02642451 0.0361272 -0.019417765 -0.0017374402
-0.018679949 0.025079658 0.05687412 0.07693146 0.050659187 0.01705506 -0.02236026 0.03226006
0.048044063 0.039956685 -0.027058017 0.05731178 -0.0043752594 0.0022547462 0.035237927 -0.012889183
-0.056938663 -0.06418065 -0.0051912293 -0.011239106 0.03728388 0.027903879 0.0321114 0.06074348
0.031514067 -0.012929121 -0.009583515 0.0037155994 -0.06640129 -0.007303027 0.023153208 0.054553382
0.000296734 0.0084400065 0.084533 -0.017105032 0.00954567 -0.026180813 -0.012969424 -0.015581326
00000000: 1ed2 03bd 88cd 6db9 25d8 243d 4020 2c3d
00000010: cab9 013e e85f 343d d635 a83c 37f7 74bc
00000020: 27a8 66bd 041b e33b 3147 e83c 8c64 a03d
00000030: e2b0 143c f06f 323d 555f 24bd aa33 a4bb
00000040: 8613 c03c 69d7 87bb 1c1c cabc b5d0 213c
00000050: ca69 85bc bfed 0f3d bd12 e93c fd95 31bc
00000060: 8ad2 8eba b7ec 02bd 76b2 0c3b 0e0c 19bd
00000070: f3d5 6a3c bcf1 643d 7965 9dbc e72a 0b3b
00000080: 056d ca3c f5d7 18bd 5c37 cbbb 4693 9bbc
00000090: 6474 e6bb 6aaa f2bb 6bc9 da3c 9dba dcbc
000000a0: 7793 6b3b 2fcc 283d e249 113d 2ca9 263c
000000b0: a7ed 9e3c 67c7 d73d 0645 8abc 7ce9 0abd
000000c0: 01f1 13bd 2339 8dbc e283 21bc ec9a 24bb
000000d0: a423 51bc 59b3 45bd fc61 d5bb f9c7 2a3d
000000e0: 66af 263d 5335 b43c 6165 813d 7c90 493d
000000f0: 64cf 2dbb 5bc8 84bc 441f 9cbb 816b c13b
00000100: 6af0 44bd ae95 753d da20 f1bc 3391 323d
00000110: ca5c 073d 9bce 063c 965d c53c 9186 db3b
00000120: aca5 563d 7d76 153d c422 acbc 299d 55bd
00000130: 8a18 023d 6a50 443c da58 3e3d 501c 863c
00000140: 9943 153d 4f8c f9bc 05c4 033c 3524 693c
00000150: 7651 213d 8bde 3f3c e4a3 ccba 5c04 01bd
00000160: 72b7 9f3d 5e2f 233c 4f67 7cbd 6302 1f3c
00000170: f3f6 d93c f08b 573c 547f 513c be4b 093d
00000180: 7bd7 683d 5924 0b3b ff45 53bd 0c5e 533d
00000190: 59fa 9cbc 5bdb bd3c 9a46 10bc 5eed cdbb
000001a0: b215 c83c e41b a93c 877e 26bd a4d5 bebc
000001b0: 4719 8fbc 02d0 5d3c a6b9 1ebd 6c89 043d
000001c0: d835 8abc 5f36 21bd a5c2 e83c 592c 7b3d
000001d0: 6f5e cfbb 41d4 953c 8bcb c03c 7a55 39bd
000001e0: 25ef 66bc 942e 9b3d cf94 5a3a 5384 023a
000001f0: 21d2 8b3d 3b01 703d a1db 83bc 8c60 a139
00000200: 2d2f a53c 98d1 38bc 0cc4 c43d b384 f33b
00000210: b37c a8ba c9a0 4ebd 6c3b 15bd aae4 153d
00000220: b8ff 163d 113c 323d 8d6f 053d 9a6b 2b3c
00000230: 81fb 393d 76fd a93c a9f3 913d 90b7 51bd
00000240: f4dd c2bc 6530 403c 358a 233c 5e56 fc3b
00000250: 3ed9 ad3d 7d7c c5bb 4132 6bbc b9fc 303d
00000260: 5605 1abd 87a1 eebc 72b1 b13d 9fbe 8b3d
00000270: 43d3 b1ba 7589 863d 4c0d 2bbc 7b10 ecbb
00000280: 09db a13d 1b86 96bd d936 02bd 53b2 fcbc
00000290: 0687 d53a 8b54 80bd 7a91 65bd d302 3fbb
000002a0: 23b7 443d 0c1f d6bc 5b03 ab3d e107 323b
000002b0: d646 863c 79f3 71bb d663 3f3d 5811 853c
000002c0: 149a 97bd c947 86bc d5b8 593d 6ac8 59bd
000002d0: 120c 3cbd aa68 85ba 4b4c 64bc eb30 e33b
000002e0: 3719 903d ed30 683c ced6 48bd 492b 3abd
000002f0: f8a9 92bc a5f9 e0bb 0102 5bba 0d9b c7bc
00000300: df0e 83bb 339a 8b3d a6c4 11bb 76d8 dd3b
00000310: a28d 50bd 0812 d23b 5ec6 643b e54a 333d
00000320: e1aa 073d 635f fc3b c141 a33c e0de 0c3b
00000330: 35c9 113b 59ca 583c 9014 c1bc 4dd9 9cbc
00000340: 5d9b 473c c547 ce3d 25d9 343d 3e4e eabb
00000350: 3778 d83c 1dfa 133d 0112 9fbc d2ba e3ba
00000360: b106 99bc db73 cd3c d6f4 683d 3e8e 9d3d
00000370: 0280 4f3d 0eb7 8b3c dd2c b7bc 2023 043d
00000380: dac9 443d 9fa9 233d c6a8 ddbc c2bf 6a3d
00000390: 565e 8fbb 5dc4 133b a555 103d 272d 53bc
000003a0: 8438 69bd 2571 83bd 301b aabb 3a24 38bc
000003b0: fbb6 183d ad96 e43c 3e87 033d 28ce 783d
000003c0: e514 013d aad4 53bc 2d04 1dbc 6a81 733b
000003d0: 66fd 87bd 3b4e efbb ccab bd3c 5e73 5f3d
000003e0: f792 9b39 f447 0a3c a31f ad3d da1f 8cbc
000003f0: 7165 1c3c 2579 d6bc b57d 54bc d148 7fbc

_encoder.res_tower.1.conv1.bias f4 [64]
-0.025924686 0.008405471 0.037315708 -0.034820177 0.0077110035 0.024532989 -0.028203988 -0.034752462
-0.019640286 0.0041229855 -0.012211556 0.032581743 0.03817735 0.006028846 0.01909353 -0.021931257
-0.010897503 -0.023594366 0.029473208 -0.013785611 -0.005599249 0.025448784 -0.016889408 0.0064772964
0.0050934656 0.01815402 0.020835992 -0.006019486 -0.011445178 -0.020543434 0.037882213 0.000569159
0.023553433 -0.03598607 -0.013370537 -0.007746851 -0.03719735 0.016191926 0.026119737 0.036704753
0.029152092 0.03795209 0.0035844937 0.00041893366 0.02436598 0.021142693 0.0041656843 -0.005300668
-0.019651722 0.017351797 0.011665856 0.038636915 -0.009328628 0.021717392 0.037672766 0.0046479246
-0.0041492158 -0.014846956 0.009091947 0.008389849 0.01890459 0.012530299 0.029596454 0.035878014
00000000: 0260 d4bc 1ab7 093c 5bd8 183d 9a9f 0ebd
00000010: 96ac fc3b 68f9 c83c 0d0c e7bc 9958 0ebd
00000020: aae4 a0bc 1c1a 873b fa12 48bc 6f74 053d
00000030: da5f 1c3d a08d c53b 096a 9c3c 2ea9 b3bc
00000040: 718b 32bc f948 c1bc cc71 f13c 0bdd 61bc
00000050: e879 b7bb f879 d03c a85b 8abc 803f d43b
00000060: 16e7 a63b bdb7 943c 3eb0 aa3c 1c3f c5bb
00000070: 8e84 3bbc b44a a8bc 612a 1b3d 9d33 153a
00000080: 21f3 c03c 2166 13bd 1910 5bbc 4cd9 fdbb
00000090: 405c 18bd eea4 843c 0ff9 d53c b957 163d
000000a0: 5ed0 ee3c a773 1b3d d3e9 6a3b 53a4 db39
000000b0: 2a9b c73c 7133 ad3c 4b80 883b 3ab1 adbb
000000c0: a6fc a0bc 5b25 8e3c 2522 3f3c be41 1e3d
000000d0: 1ad7 18bc ace8 b13c c24e 1a3d 9e4d 983b
000000e0: 25f6 87bb a640 73bc 64f6 143c 9475 093c
000000f0: ccdd 9a3c e24b 4d3c 4374 f23c d3f4 123d
