pretrained/ttt_4blocks_16filters.pth (torch_old, 35478 bytes, 66 tensors)

_encoder.conv_in.weight f4 [16, 1, 3, 3]
00000000: 7b38 b0bc eb58 583e ebc9 9a3e 9c80 683f
00000010: bc5f 833d 2036 a73e 7592 a3bd 67d6 4c3e
00000020: 9ac6 e63e 580a 6e3e 856a dfbe c2d9 b9bd
00000030: aceb 743e c392 ad3e bcc2 423e fef6 8cbe
00000040: 6ed8 81be 6b78 24be 4fb4 a83e 4a41 9cbe
00000050: b11e 1abe 1edd 893e ebd5 373e 2b39 2abf
00000060: 9f06 343e da78 19be 1f1d b1be fef1 a8be
00000070: f5fa 433e 5e02 123e a9a5 a0be 2c28 b5be
00000080: b344 f63d 44d5 a8be 2f17 133e d198 c63e
00000090: 79d3 74be b4ef 9ebd 3440 99be 6986 1c3e
000000a0: ffe6 793e 4b5a b63e b8c2 c43d 8c23 20bf
000000b0: 528d 0ebd 8842 e5bb 9ac9 b93e 2d12 973e
000000c0: 6f56 233b 7be8 c7be 082c 3f3d 1ae7 a03e
000000d0: a5a9 ca3e c31e da3d 1283 97bd b313 89bd
000000e0: 53b3 ac3d 6cda 08bd a750 663f eed9 853e
000000f0: 3ff5 fabb 90d7 be3d a73a 9d3e 2005 2d3e
00000100: 3c41 93be 7e8e 053f 85a8 93bc 545b 99be
00000110: 8c51 983d 1a80 eabe 5dc9 463e 8e3a 803e
00000120: 97f7 003f 2d50 263e 6b0d c53e 70ca a9be
00000130: d037 80be 6b4e ebbe ef84 89be 5247 88be
00000140: 0e68 e53d 11f4 6bbd 0b40 763f f870 b9bd
00000150: 47d9 b2bd 7a3e 7abd 4d08 0ebe 81a6 0abe
00000160: 7ee6 59be 407e aabe 4387 d13d 1f1e f23d
00000170: 3c5f e6bb 509e 71bf 24ed 3f3e aa87 863a
00000180: 1be4 cf3d a616 483e 7f97 d93d 3c07 96be
00000190: 5dc4 cdbe 0edd d4bc e306 d13e a80f a03e
000001a0: 31e7 563e 1e6d 583d 933e ea3e 7ae0 bd3d
000001b0: d24c 0ebe bb68 273e b797 41bd fb66 3c3c
000001c0: 85c2 df3e 4fd1 423e 3319 73be 082f e73e
000001d0: a68e 2bbf a8d2 59be d242 9cbe 6778 063f
000001e0: 412f a2be 907b 113e 0893 633e 43b9 fabe
000001f0: 3a2f b9be 0239 943e 0d0d 9ebe 0f8d 04bf
00000200: 79ec febe a7b4 5ebd 4851 9dbe f865 9cbe
00000210: 50f7 98bd af38 2fbf cd82 8fbe 0cb5 4b3e
00000220: a789 243e b7d2 66bf 49bf 373d 7217 563e
00000230: 9ab1 34bd 173d a63e 7013 7c3e 5e50 7a3e
-0.021511307 0.2112767 0.30232176 0.9082124 0.06414744 0.32658482 -0.07986919 0.20003663
0.45073396 0.23246133 -0.43635955 -0.09074737 0.23918027 0.33901033 0.19019598 -0.2753219
-0.25360435 -0.16061561 0.32950065 -0.30518562 -0.1505077 0.26926512 0.17952697 -0.6649348
0.17580651 -0.14987507 -0.3459253 -0.32997125 0.19138701 0.14258716 -0.3137639 -0.3538221
0.12024822 -0.3297521 0.14364313 0.38788465 -0.23908795 -0.077605635 -0.29931796 0.15285648
0.24404524 0.35615763 0.09607452 -0.6255424 -0.034802742 -0.0069964565 0.36286622 0.29506055
0.0024923345 -0.39044556 0.04667285 0.31426316 0.39582554 0.106503986 -0.073980466 -0.066932105
0.08432641 -0.03341143 0.89966816 0.2614283 -0.00765863 0.09318459 0.3070881 0.16896486
-0.28760707 0.5217055 -0.018024692 -0.2995249 0.07437429 -0.4580086 0.19412751 0.25044674
0.5037779 0.16241522 0.384868 -0.3316226 -0.25042582 -0.45958266 -0.26859233 -0.26616913
0.112014875 -0.057605807 0.9619147 -0.0905475 -0.087328486 -0.06109474 -0.13870354 -0.13540079
-0.21279332 -0.33299446 0.10230877 0.118221514 -0.007030396 -0.9438219 0.18742806 0.001026382
0.101509295 0.1953989 0.10624599 -0.29302394 -0.40188876 -0.025984313 0.40825567 0.31261945
0.2098663 0.052838437 0.45750865 0.09271331 -0.13896492 0.16348545 -0.047263827 0.011499162
0.43703094 0.19025157 -0.23740081 0.4515307 -0.6701454 -0.21271765 -0.3051973 0.5252747
-0.31676677 0.14207292 0.22224057 -0.48969468 -0.36168844 0.28949744 -0.30869332 -0.5177774
-0.4978979 -0.054371502 -0.30726075 -0.30546546 -0.07469046 -0.6844587 -0.2802948 0.19893283
0.16068135 -0.90165275 0.044860158 0.20907381 -0.044114687 0.32468483 0.2461679 0.2444472

_encoder.conv_in.bias f4 [16]
00000000: d198 953e baef 14be 5f45 70be bb42 8ebd
00000010: 5f96 d93c ae06 ce3d a77a 59be 9c5d 593e
00000020: cee3 0fbe a4d2 85be ebf6 fd3d 1429 babd
00000030: 30d9 8c3e 212c edbd 09ee b23d e4a7 97be
0.29218152 -0.14544573 -0.23463963 -0.069463216 0.02656096 0.10059868 -0.21238194 0.21227115
-0.14051744 -0.2613727 0.124006115 -0.09089866 0.2750945 -0.115806825 0.08736808 -0.29620278

_encoder.bn_in.weight f4 [16]
00000000: c690 943f 03ee 853f 1a2e 813f 6b58 573f
00000010: 1e8c 813f cdd8 843f 37f2 a23f 00e1 683f
00000020: 3660 783f 95c4 983f 9e15 a23f 3207 5e3f
00000030: 1610 803f 3cea 7a3f ca9d 7a3f 47da 823f
1.1606681 1.046326 1.0092194 0.8411929 1.0120885 1.0378662 1.2730168 0.9096832
0.97021806 1.1934992 1.2662847 0.8672973 1.0004909 0.98013663 0.97897017 1.0222863

_encoder.bn_in.bias f4 [16]
00000000: 8d6d 8a3c 73c7 31be c57d 3c3e 7a0b 15be
00000010: 2141 37be 5cbe 85be 4912 cbbc a008 ffbd
00000020: 65ae 1e3d dde2 6fbe 5175 30bc 5308 9e3d
00000030: 6908 143e 7ec6 593e ac8d bb3d 5697 a4bd
0.016897941 -0.1736124 0.18407352 -0.14555159 -0.17895938 -0.26121795 -0.024788992 -0.12452817
0.038740534 -0.23426385 -0.010770158 0.077164315 0.14456333 0.21267125 0.09157881 -0.080366775

_encoder.bn_in.running_mean f4 [16]
00000000: d87a 613e b57b 13be 69bf 5cbe 2834 5cbd
00000010: 14fb 093d d515 973d 886e 8abe e9ac 5e3e
00000020: 9749 e9bd 27d2 84be 390a 033e ceab 00be
00000030: 5743 813e 556f c8bd 99eb 393e 5454 a2be
0.22019517 -0.14402659 -0.21557392 -0.053760678 0.033686712 0.07377211 -0.27037454 0.21745647
-0.11390989 -0.25941584 0.12796868 -0.12565538 0.2524669 -0.0978686 0.1815628 -0.31704962

_encoder.bn_in.running_var f4 [16]
00000000: f2c4 683e 0407 403e ad92 383e d573 113e
00000010: 5415 663e d527 413e 3175 8d3e cd59 373e
00000020: a883 363e 777d 863e ced0 873e c9dd 253e
00000030: 2f5c 623e 8cdd 393e dc9c 1c3e b86a 4c3e
0.22731379 0.18752676 0.18024702 0.14204343 0.22469074 0.18862851 0.27628472 0.1790535
0.1782366 0.26267597 0.26526493 0.16197886 0.22105478 0.1815092 0.15294212 0.19962585

_encoder.res_tower.0.conv1.weight f4 [16, 16, 3, 3]
00000000: cf44 083e b1d9 9a3d 02c2 ae3e bed0 c7bd
00000010: f134 ad3d 56b9 fbbd 472e f93d 4f44 903e
00000020: c4e2 4ebe 585b 54be d540 8fbc b535 e2ba
00000030: c5d1 07bd 6d21 87bd 9323 63be 657f 733e
00000040: e673 9e3d 437a eb3c 2fe0 e7bd 2eae 823e
00000050: 7cb9 90be 2908 b33e 05b6 783e af68 c83d
00000060: fad5 bbbd 13dc 943d 31bc 8c3e ffb9 363e
00000070: a2be 11be 2b8a 25be 3701 43be 5c57 723e
00000080: 7296 06ba b434 6b3d 7bd2 3ebe d64c 7bbd
00000090: c7bd 1ebe 645c 04be aac8 b33c 8d05 75be
000000a0: b423 95be 7504 06be 7d0f d7bc 55a8 eb3d
000000b0: fd1a 603e 8b64 323e a173 f73c b289 603e
000000c0: 3264 e53d 49c2 09bd 133b 90be 2235 e1bd
000000d0: 4ac8 ca3d 9832 45be 4dc2 c6bd d719 03bd
000000e0: 0bfa c23e 8a9e b33d 7809 9f3d 1b1c 7ebe
000000f0: 008b 1c3e 677c 1fbd 9434 5e3d c494 5a3d
00000100: a2bf 833e 53ba 513d a020 4ebe acdd 99bd
00000110: 1d92 3b3d ccfc 2c3d c39b 4fbe ae90 203d
00000120: deae 8f3e 33e4 2e3d 22e4 cdbd 878e c0bd
00000130: 41d8 6fbd 0c44 913d 566f 003e 31a9 3fbd
00000140: fb35 9abd e73e 503e 677c 3ebe 8963 a6bd
00000150: 7c6e 19bd 14e9 783d 4d33 a8be d7ad 6ebe
00000160: 4c1d 4cbe aa90 c1bc 29b9 02bd 269a 48be
00000170: 4dda e1bc 0834 3cbe 1445 0dbe 5379 47be
00000180: dc2f 183e 2f44 13bd 5db5 0cbe fbbf 1d3e
00000190: f016 bc3d 7f6c d63d 2bbd ffbd 5601 40bc
000001a0: 6d83 ccbc ecc9 983d e39d 883e 5601 e83c
000001b0: fa8b 84bc e01a a3be 6e8c a93e 80a2 b1bd
000001c0: bcee a13b 1a76 363c 39ca a9bd 03a9 ce3c
000001d0: 01cd 813e 0b23 d9bd 8b90 713e ffb7 94bd
000001e0: 98de afbe 2b83 943e 5c26 3abd b158 05be
000001f0: e177 363d 6193 143c b9ca c7bd 2301 72be
00000200: c836 6bbc 3337 343e e335 6bbe ca66 0fbe
00000210: 2dec 86bd ad9c 0cbe 47d8 f63d 5385 163e
00000220: 3962 54bc f4c4 dc3d 663e fb3d 122d afbd
00000230: bd72 efbd ac98 3a3e db96 69be 2ced 4b3e
00000240: bfa7 31be 42bb 9c3e 06f9 a03d 5997 253e
00000250: 5ab5 a5bc bfb0 163e 1e2c 5c3b df48 70bd
00000260: 54ba 3a3e 0bb2 2ebe b88d 9abe 810f debd
00000270: 6908 d33e 92f3 01bd 6b0f 8abe 9edd b33c
00000280: 7a0e fcbd 8281 753e 5e0d 9fbd fdf7 7abd
00000290: 2a8a a4bd f95b 283d eb53 3dbe 3e98 01be
000002a0: 31e7 003c 9876 8d3e 178a 08bd a754 a6bd
000002b0: 481b e73b 1450 fabd c320 09be f03d da3d
000002c0: 77f8 4ebd bde8 f3bc a11d e6ba 2b2b d4bd
000002d0: 2d62 be3d 9281 033c 67c9 4c3e 74fa 593c
000002e0: 471e 413d d265 813e d9cb 343d 0a2a b93c
000002f0: f951 c73e 05d6 8dbd 1faa 87be 966d ad3c
00000300: d9b3 23be 8bb6 72be b244 ee3d 5171 81be
00000310: 7ab3 3a3c b533 40be cb50 71be 3414 683d
00000320: 62b0 80be 5a02 f8bc 2725 233d 89b2 c43c
00000330: cbd0 793e 2734 2b3d 3ad5 3ebe 5afa a73b
00000340: 4746 bf3c 1925 5a3e a383 e4bc 7281 a93d
00000350: 47be 633d 59b3 2d3e e79a fc3d 8e41 7e3d
00000360: aed2 a3bc c731 803e 946c 4e3e 2fd2 a2bc
00000370: f424 c1be 25e5 343e 84cd 833d fa2b 3b3e
00000380: c0c8 153e 7466 b9bd f3f4 2fbe 74d9 6abc
00000390: 4eda 633e 22cf a13e 1454 dcbd e482 413e
000003a0: 7903 843e e0e2 79be 49c1 e93a 7eca e83e
000003b0: 833e 53bb 3bcf 37be 4469 8cbd 28a6 b63b
000003c0: 465d d83c 8a62 a9bd 4b7d 1dbe b646 27be
000003d0: 2dec 5abd 018d 883e 7d28 123e dbfa b13d
000003e0: 7f5d 9f3c 1ea7 c739 70c3 c7bd 5c7e f93d
000003f0: 9781 3d3e 50be ecbd 35a4 233e b629 6abc
0.13307498 0.075610526 0.3413239 -0.09756611 0.084573634 -0.122912094 0.1216703 0.28177115
-0.20203692 -0.2073797 -0.017486969 -0.0017258438 -0.033159036 -0.06598172 -0.22181539 0.23779066
0.077369496 0.028744822 -0.113220565 0.25523514 -0.28266513 0.34967163 0.24288185 0.09785592
-0.09171672 0.07268538 0.2748733 0.1784439 -0.14232877 -0.16165988 -0.19043432 0.23666137
-0.00051341124 0.05742331 -0.1863498 -0.061352573 -0.15502082 -0.12925869 0.02194627 -0.23927899
-0.29128802 -0.13087638 -0.026252503 0.11506716 0.21885295 0.17421167 0.030206503 0.21927527
0.11200751 -0.03363255 -0.2817007 -0.109964624 0.09901483 -0.19257581 -0.09705029 -0.032007065
0.38081393 0.08770473 0.07765478 -0.24815409 0.152874 -0.038937 0.05424936 0.05336453
0.25732142 0.051203083 -0.20129633 -0.07512984 0.04579364 0.042233273 -0.20274262 0.039200477
0.280631 0.042698096 -0.100532785 -0.09402185 -0.058555845 0.07093057 0.12542471 -0.046792213
-0.07529827 0.20336495 -0.18602143 -0.081244536 -0.03745888 0.060769156 -0.3285164 -0.23308502
-0.19933051 -0.023628552 -0.031914864 -0.19590053 -0.027569914 -0.18379223 -0.13795882 -0.19479875
0.14862007 -0.035953697 -0.1374106 0.15405266 0.091840625 0.10469913 -0.12487253 -0.0117190685
-0.024965012 0.074603885 0.26682958 0.02832095 -0.016180027 -0.31856441 0.33114952 -0.086735725
0.0049417894 0.011136556 -0.08290524 0.025227075 0.25351718 -0.10602387 0.23590295 -0.07261657
-0.34349513 0.29006323 -0.04544674 -0.13022114 0.04454792 0.009068341 -0.09755463 -0.23633246
-0.014356323 0.17599182 -0.22969775 -0.14004055 -0.06588016 -0.13731642 0.120529704 0.14699297
-0.012962871 0.10779753 0.12267761 -0.08553518 -0.116918065 0.18222302 -0.22811453 0.19914693
-0.17349146 0.30611616 0.078599975 0.16171016 -0.020228077 0.14715861 0.0033595632 -0.058663245
0.18235141 -0.17060106 -0.30186248 -0.10842801 0.41217354 -0.031726427 -0.26964888 0.021956261
-0.12307449 0.23975185 -0.077662215 -0.061271656 -0.08034165 0.041103337 -0.18489043 -0.12655732
0.00786762 0.27629542 -0.033334818 -0.08121615 0.0070528127 -0.12222305 -0.13391404 0.10656345
-0.050529923 -0.029774064 -0.0017556438 -0.10359796 0.09296069 0.008026497 0.19998704 0.013304342
0.047148015 0.25272995 0.044139717 0.022603054 0.38929728 -0.069255866 -0.2649698 0.021170419
-0.15986575 -0.23702447 0.11634196 -0.25281766 0.01139533 -0.18769725 -0.23565976 0.056659892
-0.2513457 -0.030274559 0.039830353 0.024010913 0.24396054 0.041797783 -0.18636027 0.00512628
0.02334894 0.21303214 -0.0278948 0.08276643 0.055601384 0.16962947 0.12334233 0.062074237
-0.01999792 0.25037977 0.20158607 -0.019875614 -0.37723505 0.17665537 0.06435683 0.18278494
0.14627361 -0.090527445 -0.17183284 -0.014334071 0.22251245 0.31603342 -0.10758224 0.18897587
0.257839 -0.24402952 0.0017834093 0.4546699 -0.0032233305 -0.17950146 -0.06856015 0.0055740066
0.026411664 -0.08270748 -0.15379827 -0.16335568 -0.05344789 0.26670077 0.14273258 0.08690425
0.019453762 0.0003808075 -0.097540736 0.12182304 0.18506466 -0.11559737 0.15980609 -0.014292171

_encoder.res_tower.0.conv1.bias f4 [16]
00000000: 35b2 633d 02d8 c0bc 61c0 4ebd 5746 8e3b
00000010: 6141 fdbc 9a9c 34bd b6c7 463d 6618 97bd
00000020: 51aa 46bc 6a03 7abc ba68 86bd daa6 92bd
00000030: ce71 13bd 0bb8 0abd c309 2d3c 495e ee3a
0.055589873 -0.0235405 -0.050476436 0.0043418813 -0.030914964 -0.04409466 0.048530303 -0.073777005
-0.0121255675 -0.015259603 -0.06562944 -0.07160731 -0.035997204 -0.033866923 0.010561409 0.0018186058

_encoder.res_tower.0.bn1.weight f4 [16]
00000000: 8688 863f f4a1 643f 659d 6d3f 3043 813f
00000010: a489 7f3f 86b2 8d3f 2018 773f 11fc 813f
00000020: 6bb1 5f3f 1452 803f 7132 673f 57f9 723f
00000030: 89eb 653f ed87 6f3f 6ebc 653f 2241 833f
1.0510414 0.8930962 0.9281829 1.0098629 0.998194 1.1070106 0.96521187 1.015505
0.87380093 1.0025048 0.9031134 0.9491171 0.89812523 0.9356678 0.89740646 1.0254252

_encoder.res_tower.0.bn1.bias f4 [16]
00000000: 47bc f0bd eea6 c0bd 55a9 4ebd 26fe 88bd
00000010: e6de 4bbe 7e86 1b3c ef6c 30bd 2093 053d
00000020: 9655 133c 5499 043c 5c5b 953d 8ac6 01be
00000030: e43a d0bc ad64 5bbe 12ee d13c 6077 88bd
-0.11754661 -0.09406839 -0.050454456 -0.066891 -0.19909248 0.009492515 -0.043072637 0.032611012
0.008992573 0.008093197 0.07292816 -0.12673393 -0.025418706 -0.21425124 0.025626216 -0.06663394

_encoder.res_tower.0.bn1.running_mean f4 [16]
00000000: 711c 1cbf f8b3 e03e 0bff a03e 04f9 93bf
00000010: f27f e93b 61dd ebbf a0f0 1c3f 5b5a 49bf
00000020: 31a2 eb3d 7ddd 3dbf 6c9a 6a3b d3be 8fbe
00000030: 51ab 673f dafc 3e3f 78da 1c3e f7fa a3bf
-0.609809 0.43887305 0.31444582 -1.1560369 0.007125848 -1.8426934 0.61304665 -0.78653497
0.11505545 -0.7416609 0.003579761 -0.28075275 0.90495783 0.7460457 0.15317714 -1.2810963

_encoder.res_tower.0.bn1.running_var f4 [16]
00000000: 4fca 5b40 2fa2 2b40 2732 8340 28ea 3440
00000010: b58e 2640 449f 4740 d105 8340 b148 3d40
00000020: 4bb0 7f40 3aac 3e40 4df9 5140 317a 2940
00000030: 46ae 7240 12f2 8840 413c 9440 0b6a 6440
3.434223 2.681774 4.099872 2.8267918 2.6024601 3.1190958 4.09446 2.9575617
3.995135 2.9792619 3.280841 2.648083 3.7918868 4.2795496 4.632355 3.5689723

_encoder.res_tower.0.conv2.weight f4 [16, 16, 3, 3]
00000000: 34e5 2e3e 21f6 443e 481a 023e 94ab 05be
00000010: 1c96 22bd 1cb7 5abe 338e 353e 62a9 893e
00000020: b077 4f3e 14ef b83c a671 8bbd d395 82be
00000030: 5191 48bc dbbc 7a3d 8311 0a3e a9a5 c23d
00000040: a9fe b53d 25e3 a0be 05ce d4bc 5d4c 313e
00000050: 19c9 0f3e f8b5 39bd c48f 90bd 84ef 12be
00000060: 13dd 103e d1a1 e9bd 2a12 9fbd abb3 31be
00000070: 300c 52be b040 213e f341 10be 95ed 723d
00000080: f56d e73d 2545 d83c 8bcd 773e bf9b ebbd
00000090: 2f7e 2b3d 30da 16bc d4e2 80bc 9d6c 473e
000000a0: 9ea9 41be 2e4b ac3e 7a3e 263e 7ed0 26be
000000b0: 3518 0b3e 383e 443d aebf 8d3d 7df4 b53d
000000c0: 269b e03d 8146 06bc 57cf f5bc d6b3 8f3d
000000d0: ef15 363e 6ae0 133d 406d a33c 9829 a6be
000000e0: efa3 453e 873f 4b3e 02c3 a2bd 9f6a cb3d
000000f0: 97c3 c33d b172 a1bc 45d7 383e 8839 44be
00000100: 3faa 903d de8e 3b3c 0d55 243e 6754 fdbb
00000110: 22b1 303e 14c2 103d a0d5 45ba 9b22 33be
00000120: 6888 ef3c 6daa 4fbd c16b 943d f5dc 133e
00000130: f88e c63c 840b 57bd 23dc e63d 7595 953e
00000140: cf67 703c 43ee c5bd db8c 66be 3087 6e3c
00000150: c667 e13a 914c 2d3e ac6e 98bd 7362 1c3b
00000160: 877c 963e 71a8 a5bd 9482 74be deb5 a2bd
00000170: 8573 49be 62d3 6c3e 0994 88be bc91 86be
00000180: 8e78 86be 5d64 12be e60a 033e 5404 a2be
00000190: 5650 d5bc c8d7 523d ebfc 2ebd 29d8 923e
000001a0: 98b4 b8bd d62f b83d d5dd 7e3e 4351 b6bd
000001b0: 3850 08be 58a7 333c 24c1 623d 01e1 ecbc
000001c0: fb7c ffbb 9e0a 20bd bd6c 203e 22c6 113e
000001d0: 3490 f93d 75ed fc3d 1c74 cd3c a2c7 88be
000001e0: 3bcc 243e 0798 6cbe 097f e43b ade7 f7bd
000001f0: 045d 97ba 3ddf b23d 964f ecbd e387 7f3e
00000200: cfbb 7f3d 26d9 cf3d 8c78 d73d d0e0 49be
00000210: 9465 55be 21d5 e4bb 0e70 08be 7856 803d
00000220: 228b 9bbd fa75 ecbb c1a1 3a3d fcf4 2dbd
00000230: 2196 333e a17e 6cbc 8589 133e fa53 25bd
00000240: 25a9 6bbe 39d6 d9bd 2634 873d 6cf7 ab3d
00000250: f6e9 353b cddb 37bd a436 973c 505f e5bd
00000260: 835d 1cbd 7587 503d e500 6c3e 96a0 fdbd
00000270: 8a5f fd3d 17cc 55bd a078 393e 2bfe debd
00000280: 5090 45bd d965 26bd 8be9 04be 84e6 643d
00000290: a98d 5a3e 8dc5 7dbd 3b19 88be c1c1 4bbe
000002a0: 31df e7bd 7a51 033e 81dc b5bd 3b6b 093e
000002b0: 8333 163e 92d9 f7bd 286c 3d3e f83b debd
000002c0: 9819 06bd b1e0 f63d d797 1ebe f4a2 89bd
000002d0: 7eb9 d2bc ae25 243d 06fc 24bd 88b8 213e
000002e0: ad84 adbd b92e f1bc 7d6c 31bd 4f49 67be
000002f0: 492b aebd ad77 0a3e 1ce2 d03d 24ab 0c3d
00000300: 2ee5 3d3e 30bc d33c 9553 10be 8478 b1bc
00000310: 4250 8d3d c725 36ba 9609 603c a6a3 4bbe
00000320: 3f0b 86be 2941 6bbe ae3a 50bd 82c5 b93e
00000330: e392 8e3e fbe6 0a3e dad8 aa3e ddec 41bd
00000340: 8e5d 05be 0572 833d 3fa4 9e3c 7512 39be
00000350: 918a 253d fd25 31be d1ce 413d 2fc8 f53d
00000360: de36 c7bd 1092 b1be dc7c 3ebd bbc7 a63d
00000370: d56b a33e 276a d0bb 4316 dd3d f0c2 d5bd
00000380: a629 03be cce0 9bbe ac2c 18be 1c13 99bc
00000390: c866 013e c20d 15be 776f 47bd a899 49be
000003a0: 4718 bebc 5440 743d 3b6f 21be 0676 4d3e
000003b0: cb4f 953d 517d 103e b3b5 1e3e fd77 b1be
000003c0: 89e1 03be edcd 303e 184c bebe 6a53 8dbe
000003d0: 416a a43d 7dff 143a 5444 febd eb81 91bd
000003e0: 802c b1bd 8f79 223e 0b40 14be 0fff 92bc
000003f0: b4f0 783e 5fef 5e3d de6d b9bd 3588 63be
0.17079622 0.19234516 0.12705338 -0.13053733 -0.039693937 -0.21358913 0.17730026 0.2688704
0.20260501 0.022574939 -0.06808786 -0.25504932 -0.012241677 0.061215263 0.13483243 0.095042534
0.08886463 -0.31423298 -0.025977144 0.17314287 0.14041556 -0.045339555 -0.07058671 -0.1434918
0.14146833 -0.11407817 -0.077671364 -0.17353694 -0.20512462 0.15747333 -0.14087658 0.059308607
0.113002695 0.026400158 0.24199502 -0.115043156 0.041868385 -0.009207293 -0.01573316 0.19475026
-0.1891236 0.33651108 0.1623477 -0.16290471 0.13583453 0.0479109 0.069213256 0.08884523
0.10967092 -0.00819552 -0.030006094 0.07016723 0.17781805 0.03610269 0.019949555 -0.3245361
0.19300817 0.19848453 -0.07947351 0.09932446 0.0955879 -0.01970801 0.18050869 -0.19162571
0.07063722 0.011447636 0.1604807 -0.007731009 0.17255071 0.035341337 -0.0007546786 -0.1749367
0.029239848 -0.05069964 0.07247115 0.14439757 0.024238095 -0.052501217 0.112724565 0.2921559
0.014673187 -0.096645854 -0.2251467 0.014558598 0.0017197065 0.16923739 -0.07442984 0.0023862391
0.29391882 -0.08088768 -0.23877937 -0.07944845 -0.19672973 0.23127511 -0.26675442 -0.26283062
-0.2626385 -0.14296098 0.12797126 -0.31643927 -0.026039284 0.051475316 -0.04272167 0.28680542
-0.090188205 0.08993499 0.2488931 -0.08902218 -0.13311851 0.010965191 0.055359975 -0.028915884
-0.0077968813 -0.039072625 0.1566648 0.14235738 0.12185708 0.12349979 0.02507978 -0.26714808
0.16093533 -0.23104869 0.0069731516 -0.121047355 -0.0011548107 0.087339856 -0.11538617 0.2495418
0.062434968 0.1014884 0.10521039 -0.19714665 -0.2083953 -0.0069834148 -0.13323995 0.062664926
-0.07594897 -0.0072162123 0.045564417 -0.042469963 0.17537738 -0.014434488 0.14407928 -0.04036329
-0.23013742 -0.10636563 0.066017434 0.08396801 0.002775786 -0.044887353 0.018458672 -0.1119982
-0.038175117 0.050910432 0.23047216 -0.12384145 0.12371738 -0.05219659 0.18112421 -0.108883224
-0.04823333 -0.040624473 -0.12979715 0.0558839 0.21343102 -0.061955977 -0.2658175 -0.1989813
-0.11321867 0.1282405 -0.088799484 0.13419811 0.14668088 -0.12102045 0.1849829 -0.10851282
-0.03273925 0.12054575 -0.1548761 -0.06720534 -0.025723215 0.040074997 -0.04027941 0.1579305
-0.084725715 -0.029441224 -0.043316353 -0.22586559 -0.0850435 0.13522215 0.10199377 0.0343429
0.18544456 0.02584657 -0.14094384 -0.021663912 0.069000736 -0.0006948378 0.01367416 -0.19886646
-0.26180455 -0.22974075 -0.05083721 0.362835 0.2784644 0.13564675 0.3336857 -0.04734503
-0.1302397 0.06418232 0.019365428 -0.18073447 0.04041535 -0.17299648 0.047316376 0.120010726
-0.09727262 -0.3468175 -0.046505794 0.08143564 0.31918207 -0.0063603106 0.10795262 -0.10437572
-0.12808856 -0.30444944 -0.14860791 -0.01868587 0.12636864 -0.1455603 -0.048690286 -0.19687521
-0.023204936 0.05963166 -0.15765087 0.20064554 0.0729061 0.14110304 0.15499 -0.34661856
-0.12879004 0.17266054 -0.3716743 -0.27602702 0.08028079 0.00056838227 -0.12415376 -0.07104858
-0.08651066 0.15866683 -0.14477555 -0.017943887 0.24310571 0.0544275 -0.09054159 -0.22219928

_encoder.res_tower.0.conv2.bias f4 [16]
00000000: 2046 203d 4cc8 643c e10e c03c 7404 e33c
00000010: 4c38 9039 8629 943d 97c4 4e3d b9ad 813a
00000020: a253 973d 1693 5e3d 40e5 94bd b2f7 0f3d
00000030: dda4 cd3c 6890 ebbb ec5c 7abb b355 013d
0.039129376 0.01396377 0.023444595 0.027712084 0.00027507765 0.072344825 0.05048045 0.0009893692
0.073889986 0.05433949 -0.072702885 0.03514833 0.025103027 -0.0071888454 -0.0038202358 0.03157587

_encoder.res_tower.0.bn2.weight f4 [16]
00000000: 0103 513f 2f09 753f adf9 5e3f f9aa 883f
00000010: d643 543f 7111 4c3f f719 663f 5df0 5f3f
00000020: 96cb 673f 048b 1d3f 0d7f 2d3f 29f0 683f
00000030: 1cd2 463f cef6 763f f0a4 673f 12a8 413f
0.8164521 0.9571714 0.87099725 1.0677177 0.8291601 0.79714113 0.8988337 0.8747614
0.9054502 0.61540246 0.6777199 0.90991455 0.7766435 0.96470344 0.9048605 0.7564708

_encoder.res_tower.0.bn2.bias f4 [16]
00000000: 3004 26be 09cf 42be 5514 28be 934b 23be
00000010: 5c55 563c 2502 12bb ec3f 83bd 8743 80be
00000020: 3cbd 5e3c 1bf0 813e 85c2 ec3a 7a9c 203e
00000030: 80a6 47be a8b6 cdbd 3a46 2bbe 0828 e1bc
-0.16212535 -0.1902429 -0.16414006 -0.15946798 0.013081875 -0.002227911 -0.064086765 -0.2505152
0.013594922 0.25378498 0.0018063342 0.15684691 -0.19497108 -0.100446045 -0.16726008 -0.027484909

_encoder.res_tower.0.bn2.running_mean f4 [16]
00000000: 088d 003f e9b2 7fbd f0d5 0ebf 10c1 4c3c
00000010: 3752 243f a382 c13e 6d98 6bbe f106 8d3f
00000020: 02fb be3d aa74 0b3e ac0e 09be 6969 043f
00000030: 037b 11be 2e22 9bbe 4a95 8abd 6018 463e
0.50215197 -0.06242648 -0.5579519 0.012497202 0.6418795 0.3779498 -0.23007365 1.1017743
0.0932522 0.13618723 -0.13384503 0.51723343 -0.14207081 -0.30299515 -0.06766756 0.19345236

_encoder.res_tower.0.bn2.running_var f4 [16]
00000000: 5706 373f 6966 333f 93f2 5a3f ad6a 443f
00000010: fbb9 623f e3a9 4f3f ae54 393f e7f1 553f
00000020: 20f5 823f 1ed0 983f 1be4 363f 27b2 8f3f
00000030: d58d 333f 183f 833f 118b 183f d661 5d3f
0.7149405 0.7007814 0.8552639 0.76725274 0.88565034 0.811186 0.72394836 0.8357224
1.0231056 1.1938512 0.7144181 1.1226243 0.70138294 1.025363 0.595872 0.8647741

_encoder.res_tower.1.conv1.weight f4 [16, 16, 3, 3]
00000000: cf44 083e b1d9 9a3d 02c2 ae3e bed0 c7bd
00000010: f134 ad3d 56b9 fbbd 472e f93d 4f44 903e
00000020: c4e2 4ebe 585b 54be d540 8fbc b535 e2ba
00000030: c5d1 07bd 6d21 87bd 9323 63be 657f 733e
00000040: e673 9e3d 437a eb3c 2fe0 e7bd 2eae 823e
00000050: 7cb9 90be 2908 b33e 05b6 783e af68 c83d
00000060: fad5 bbbd 13dc 943d 31bc 8c3e ffb9 363e
00000070: a2be 11be 2b8a 25be 3701 43be 5c57 723e
00000080: 7296 06ba b434 6b3d 7bd2 3ebe d64c 7bbd
00000090: c7bd 1ebe 645c 04be aac8 b33c 8d05 75be
000000a0: b423 95be 7504 06be 7d0f d7bc 55a8 eb3d
000000b0: fd1a 603e 8b64 323e a173 f73c b289 603e
000000c0: 3264 e53d 49c2 09bd 133b 90be 2235 e1bd
000000d0: 4ac8 ca3d 9832 45be 4dc2 c6bd d719 03bd
000000e0: 0bfa c23e 8a9e b33d 7809 9f3d 1b1c 7ebe
000000f0: 008b 1c3e 677c 1fbd 9434 5e3d c494 5a3d
00000100: a2bf 833e 53ba 513d a020 4ebe acdd 99bd
00000110: 1d92 3b3d ccfc 2c3d c39b 4fbe ae90 203d
00000120: deae 8f3e 33e4 2e3d 22e4 cdbd 878e c0bd
00000130: 41d8 6fbd 0c44 913d 566f 003e 31a9 3fbd
00000140: fb35 9abd e73e 503e 677c 3ebe 8963 a6bd
00000150: 7c6e 19bd 14e9 783d 4d33 a8be d7ad 6ebe
00000160: 4c1d 4cbe aa90 c1bc 29b9 02bd 269a 48be
00000170: 4dda e1bc 0834 3cbe 1445 0dbe 5379 47be
00000180: dc2f 183e 2f44 13bd 5db5 0cbe fbbf 1d3e
00000190: f016 bc3d 7f6c d63d 2bbd ffbd 5601 40bc
000001a0: 6d83 ccbc ecc9 983d e39d 883e 5601 e83c
000001b0: fa8b 84bc e01a a3be 6e8c a93e 80a2 b1bd
000001c0: bcee a13b 1a76 363c 39ca a9bd 03a9 ce3c
000001d0: 01cd 813e 0b23 d9bd 8b90 713e ffb7 94bd
000001e0: 98de afbe 2b83 943e 5c26 3abd b158 05be
000001f0: e177 363d 6193 143c b9ca c7bd 2301 72be
00000200: c836 6bbc 3337 343e e335 6bbe ca66 0fbe
00000210: 2dec 86bd ad9c 0cbe 47d8 f63d 5385 163e
00000220: 3962 54bc f4c4 dc3d 663e fb3d 122d afbd
00000230: bd72 efbd ac98 3a3e db96 69be 2ced 4b3e
00000240: bfa7 31be 42bb 9c3e 06f9 a03d 5997 253e
00000250: 5ab5 a5bc bfb0 163e 1e2c 5c3b df48 70bd
00000260: 54ba 3a3e 0bb2 2ebe b88d 9abe 810f debd
00000270: 6908 d33e 92f3 01bd 6b0f 8abe 9edd b33c
00000280: 7a0e fcbd 8281 753e 5e0d 9fbd fdf7 7abd
00000290: 2a8a a4bd f95b 283d eb53 3dbe 3e98 01be
000002a0: 31e7 003c 9876 8d3e 178a 08bd a754 a6bd
000002b0: 481b e73b 1450 fabd c320 09be f03d da3d
000002c0: 77f8 4ebd bde8 f3bc a11d e6ba 2b2b d4bd
000002d0: 2d62 be3d 9281 033c 67c9 4c3e 74fa 593c
000002e0: 471e 413d d265 813e d9cb 343d 0a2a b93c
000002f0: f951 c73e 05d6 8dbd 1faa 87be 966d ad3c
00000300: d9b3 23be 8bb6 72be b244 ee3d 5171 81be
00000310: 7ab3 3a3c b533 40be cb50 71be 3414 683d
00000320: 62b0 80be 5a02 f8bc 2725 233d 89b2 c43c
00000330: cbd0 793e 2734 2b3d 3ad5 3ebe 5afa a73b
00000340: 4746 bf3c 1925 5a3e a383 e4bc 7281 a93d
00000350: 47be 633d 59b3 2d3e e79a fc3d 8e41 7e3d
00000360: aed2 a3bc c731 803e 946c 4e3e 2fd2 a2bc
00000370: f424 c1be 25e5 343e 84cd 833d fa2b 3b3e
00000380: c0c8 153e 7466 b9bd f3f4 2fbe 74d9 6abc
00000390: 4eda 633e 22cf a13e 1454 dcbd e482 413e
000003a0: 7903 843e e0e2 79be 49c1 e93a 7eca e83e
000003b0: 833e 53bb 3bcf 37be 4469 8cbd 28a6 b63b
000003c0: 465d d83c 8a62 a9bd 4b7d 1dbe b646 27be
000003d0: 2dec 5abd 018d 883e 7d28 123e dbfa b13d
000003e0: 7f5d 9f3c 1ea7 c739 70c3 c7bd 5c7e f93d
000003f0: 9781 3d3e 50be ecbd 35a4 233e b629 6abc
0.13307498 0.075610526 0.3413239 -0.09756611 0.084573634 -0.122912094 0.1216703 0.28177115
-0.20203692 -0.2073797 -0.017486969 -0.0017258438 -0.033159036 -0.06598172 -0.22181539 0.23779066
0.077369496 0.028744822 -0.113220565 0.25523514 -0.28266513 0.34967163 0.24288185 0.09785592
-0.09171672 0.07268538 0.2748733 0.1784439 -0.14232877 -0.16165988 -0.19043432 0.23666137
-0.00051341124 0.05742331 -0.1863498 -0.061352573 -0.15502082 -0.12925869 0.02194627 -0.23927899
-0.29128802 -0.13087638 -0.026252503 0.11506716 0.21885295 0.17421167 0.030206503 0.21927527
0.11200751 -0.03363255 -0.2817007 -0.109964624 0.09901483 -0.19257581 -0.09705029 -0.032007065
0.38081393 0.08770473 0.07765478 -0.24815409 0.152874 -0.038937 0.05424936 0.05336453
0.25732142 0.051203083 -0.20129633 -0.07512984 0.04579364 0.042233273 -0.20274262 0.039200477
0.280631 0.042698096 -0.100532785 -0.09402185 -0.058555845 0.07093057 0.12542471 -0.046792213
-0.07529827 0.20336495 -0.18602143 -0.081244536 -0.03745888 0.060769156 -0.3285164 -0.23308502
-0.19933051 -0.023628552 -0.031914864 -0.19590053 -0.027569914 -0.18379223 -0.13795882 -0.19479875
0.14862007 -0.035953697 -0.1374106 0.15405266 0.091840625 0.10469913 -0.12487253 -0.0117190685
-0.024965012 0.074603885 0.26682958 0.02832095 -0.016180027 -0.31856441 0.33114952 -0.086735725
0.0049417894 0.011136556 -0.08290524 0.025227075 0.25351718 -0.10602387 0.23590295 -0.07261657
-0.34349513 0.29006323 -0.04544674 -0.13022114 0.04454792 0.009068341 -0.09755463 -0.23633246
-0.014356323 0.17599182 -0.22969775 -0.14004055 -0.06588016 -0.13731642 0.120529704 0.14699297
-0.012962871 0.10779753 0.12267761 -0.08553518 -0.116918065 0.18222302 -0.22811453 0.19914693
-0.17349146 0.30611616 0.078599975 0.16171016 -0.020228077 0.14715861 0.0033595632 -0.058663245
0.18235141 -0.17060106 -0.30186248 -0.10842801 0.41217354 -0.031726427 -0.26964888 0.021956261
-0.12307449 0.23975185 -0.077662215 -0.061271656 -0.08034165 0.041103337 -0.18489043 -0.12655732
0.00786762 0.27629542 -0.033334818 -0.08121615 0.0070528127 -0.12222305 -0.13391404 0.10656345
-0.050529923 -0.029774064 -0.0017556438 -0.10359796 0.09296069 0.008026497 0.19998704 0.013304342
0.047148015 0.25272995 0.044139717 0.022603054 0.38929728 -0.069255866 -0.2649698 0.021170419
-0.15986575 -0.23702447 0.11634196 -0.25281766 0.01139533 -0.18769725 -0.23565976 0.056659892
-0.2513457 -0.030274559 0.039830353 0.024010913 0.24396054 0.041797783 -0.18636027 0.00512628
0.02334894 0.21303214 -0.0278948 0.08276643 0.055601384 0.16962947 0.12334233 0.062074237
-0.01999792 0.25037977 0.20158607 -0.019875614 -0.37723505 0.17665537 0.06435683 0.18278494
0.14627361 -0.090527445 -0.17183284 -0.014334071 0.22251245 0.31603342 -0.10758224 0.18897587
0.257839 -0.24402952 0.0017834093 0.4546699 -0.0032233305 -0.17950146 -0.06856015 0.0055740066
0.026411664 -0.08270748 -0.15379827 -0.16335568 -0.05344789 0.26670077 0.14273258 0.08690425
0.019453762 0.0003808075 -0.097540736 0.12182304 0.18506466 -0.11559737 0.15980609 -0.014292171

_encoder.res_tower.1.conv1.bias f4 [16]
00000000: 35b2 633d 02d8 c0bc 61c0 4ebd 5746 8e3b
00000010: 6141 fdbc 9a9c 34bd b6c7 463d 6618 97bd
00000020: 51aa 46bc 6a03 7abc ba68 86bd daa6 92bd
00000030: ce71 13bd 0bb8 0abd c309 2d3c 495e ee3a
0.055589873 -0.0235405 -0.050476436 0.0043418813 -0.030914964 -0.04409466 0.048530303 -0.073777005
-0.0121255675 -0.015259603 -0.06562944 -0.07160731 -0.035997204 -0.033866923 0.010561409 0.0018186058

_encoder.res_tower.1.bn1.weight f4 [16]
00000000: 8688 863f f4a1 643f 659d 6d3f 3043 813f
00000010: a489 7f3f 86b2 8d3f 2018 773f 11fc 813f
00000020: 6bb1 5f3f 1452 803f 7132 673f 57f9 723f
00000030: 89eb 653f ed87 6f3f 6ebc 653f 2241 833f
1.0510414 0.8930962 0.9281829 1.0098629 0.998194 1.1070106 0.96521187 1.015505
0.87380093 1.0025048 0.9031134 0.9491171 0.89812523 0.9356678 0.89740646 1.0254252

_encoder.res_tower.1.bn1.bias f4 [16]
00000000: 47bc f0bd eea6 c0bd 55a9 4ebd 26fe 88bd
00000010: e6de 4bbe 7e86 1b3c ef6c 30bd 2093 053d
00000020: 9655 133c 5499 043c 5c5b 953d 8ac6 01be
00000030: e43a d0bc ad64 5bbe 12ee d13c 6077 88bd
-0.11754661 -0.09406839 -0.050454456 -0.066891 -0.19909248 0.009492515 -0.043072637 0.032611012
0.008992573 0.008093197 0.07292816 -0.12673393 -0.025418706 -0.21425124 0.025626216 -0.06663394

_encoder.res_tower.1.bn1.running_mean f4 [16]
00000000: 711c 1cbf f8b3 e03e 0bff a03e 04f9 93bf
00000010: f27f e93b 61dd ebbf a0f0 1c3f 5b5a 49bf
00000020: 31a2 eb3d 7ddd 3dbf 6c9a 6a3b d3be 8fbe
00000030: 51ab 673f dafc 3e3f 78da 1c3e f7fa a3bf
-0.609809 0.43887305 0.31444582 -1.1560369 0.007125848 -1.8426934 0.61304665 -0.78653497
0.11505545 -0.7416609 0.003579761 -0.28075275 0.90495783 0.7460457 0.15317714 -1.2810963

_encoder.res_tower.1.bn1.running_var f4 [16]
00000000: 4fca 5b40 2fa2 2b40 2732 8340 28ea 3440
00000010: b58e 2640 449f 4740 d105 8340 b148 3d40
00000020: 4bb0 7f40 3aac 3e40 4df9 5140 317a 2940
00000030: 46ae 7240 12f2 8840 413c 9440 0b6a 6440
3.434223 2.681774 4.099872 2.8267918 2.6024601 3.1190958 4.09446 2.9575617
3.995135 2.9792619 3.280841 2.648083 3.7918868 4.2795496 4.632355 3.5689723

_encoder.res_tower.1.conv2.weight f4 [16, 16, 3, 3]
00000000: 34e5 2e3e 21f6 443e 481a 023e 94ab 05be
00000010: 1c96 22bd 1cb7 5abe 338e 353e 62a9 893e
00000020: b077 4f3e 14ef b83c a671 8bbd d395 82be
00000030: 5191 48bc dbbc 7a3d 8311 0a3e a9a5 c23d
00000040: a9fe b53d 25e3 a0be 05ce d4bc 5d4c 313e
00000050: 19c9 0f3e f8b5 39bd c48f 90bd 84ef 12be
00000060: 13dd 103e d1a1 e9bd 2a12 9fbd abb3 31be
00000070: 300c 52be b040 213e f341 10be 95ed 723d
00000080: f56d e73d 2545 d83c 8bcd 773e bf9b ebbd
00000090: 2f7e 2b3d 30da 16bc d4e2 80bc 9d6c 473e
000000a0: 9ea9 41be 2e4b ac3e 7a3e 263e 7ed0 26be
000000b0: 3518 0b3e 383e 443d aebf 8d3d 7df4 b53d
000000c0: 269b e03d 8146 06bc 57cf f5bc d6b3 8f3d
000000d0: ef15 363e 6ae0 133d 406d a33c 9829 a6be
000000e0: efa3 453e 873f 4b3e 02c3 a2bd 9f6a cb3d
000000f0: 97c3 c33d b172 a1bc 45d7 383e 8839 44be
00000100: 3faa 903d de8e 3b3c 0d55 243e 6754 fdbb
00000110: 22b1 303e 14c2 103d a0d5 45ba 9b22 33be
00000120: 6888 ef3c 6daa 4fbd c16b 943d f5dc 133e
00000130: f88e c63c 840b 57bd 23dc e63d 7595 953e
00000140: cf67 703c 43ee c5bd db8c 66be 3087 6e3c
00000150: c667 e13a 914c 2d3e ac6e 98bd 7362 1c3b
00000160: 877c 963e 71a8 a5bd 9482 74be deb5 a2bd
00000170: 8573 49be 62d3 6c3e 0994 88be bc91 86be
00000180: 8e78 86be 5d64 12be e60a 033e 5404 a2be
00000190: 5650 d5bc c8d7 523d ebfc 2ebd 29d8 923e
000001a0: 98b4 b8bd d62f b83d d5dd 7e3e 4351 b6bd
000001b0: 3850 08be 58a7 333c 24c1 623d 01e1 ecbc
000001c0: fb7c ffbb 9e0a 20bd bd6c 203e 22c6 113e
000001d0: 3490 f93d 75ed fc3d 1c74 cd3c a2c7 88be
000001e0: 3bcc 243e 0798 6cbe 097f e43b ade7 f7bd
000001f0: 045d 97ba 3ddf b23d 964f ecbd e387 7f3e
00000200: cfbb 7f3d 26d9 cf3d 8c78 d73d d0e0 49be
00000210: 9465 55be 21d5 e4bb 0e70 08be 7856 803d
00000220: 228b 9bbd fa75 ecbb c1a1 3a3d fcf4 2dbd
00000230: 2196 333e a17e 6cbc 8589 133e fa53 25bd
00000240: 25a9 6bbe 39d6 d9bd 2634 873d 6cf7 ab3d
00000250: f6e9 353b cddb 37bd a436 973c 505f e5bd
00000260: 835d 1cbd 7587 503d e500 6c3e 96a0 fdbd
00000270: 8a5f fd3d 17cc 55bd a078 393e 2bfe debd
00000280: 5090 45bd d965 26bd 8be9 04be 84e6 643d
00000290: a98d 5a3e 8dc5 7dbd 3b19 88be c1c1 4bbe
000002a0: 31df e7bd 7a51 033e 81dc b5bd 3b6b 093e
000002b0: 8333 163e 92d9 f7bd 286c 3d3e f83b debd
000002c0: 9819 06bd b1e0 f63d d797 1ebe f4a2 89bd
000002d0: 7eb9 d2bc ae25 243d 06fc 24bd 88b8 213e
000002e0: ad84 adbd b92e f1bc 7d6c 31bd 4f49 67be
000002f0: 492b aebd ad77 0a3e 1ce2 d03d 24ab 0c3d
00000300: 2ee5 3d3e 30bc d33c 9553 10be 8478 b1bc
00000310: 4250 8d3d c725 36ba 9609 603c a6a3 4bbe
00000320: 3f0b 86be 2941 6bbe ae3a 50bd 82c5 b93e
00000330: e392 8e3e fbe6 0a3e dad8 aa3e ddec 41bd
00000340: 8e5d 05be 0572 833d 3fa4 9e3c 7512 39be
00000350: 918a 253d fd25 31be d1ce 413d 2fc8 f53d
00000360: de36 c7bd 1092 b1be dc7c 3ebd bbc7 a63d
00000370: d56b a33e 276a d0bb 4316 dd3d f0c2 d5bd
00000380: a629 03be cce0 9bbe ac2c 18be 1c13 99bc
00000390: c866 013e c20d 15be 776f 47bd a899 49be
000003a0: 4718 bebc 5440 743d 3b6f 21be 0676 4d3e
000003b0: cb4f 953d 517d 103e b3b5 1e3e fd77 b1be
000003c0: 89e1 03be edcd 303e 184c bebe 6a53 8dbe
000003d0: 416a a43d 7dff 143a 5444 febd eb81 91bd
000003e0: 802c b1bd 8f79 223e 0b40 14be 0fff 92bc
000003f0: b4f0 783e 5fef 5e3d de6d b9bd 3588 63be
0.17079622 0.19234516 0.12705338 -0.13053733 -0.039693937 -0.21358913 0.17730026 0.2688704
0.20260501 0.022574939 -0.06808786 -0.25504932 -0.012241677 0.061215263 0.13483243 0.095042534
0.08886463 -0.31423298 -0.025977144 0.17314287 0.14041556 -0.045339555 -0.07058671 -0.1434918
0.14146833 -0.11407817 -0.077671364 -0.17353694 -0.20512462 0.15747333 -0.14087658 0.059308607
0.113002695 0.026400158 0.24199502 -0.115043156 0.041868385 -0.009207293 -0.01573316 0.19475026
-0.1891236 0.33651108 0.1623477 -0.16290471 0.13583453 0.0479109 0.069213256 0.08884523
0.10967092 -0.00819552 -0.030006094 0.07016723 0.17781805 0.03610269 0.019949555 -0.3245361
0.19300817 0.19848453 -0.07947351 0.09932446 0.0955879 -0.01970801 0.18050869 -0.19162571
0.07063722 0.011447636 0.1604807 -0.007731009 0.17255071 0.035341337 -0.0007546786 -0.1749367
0.029239848 -0.05069964 0.07247115 0.14439757 0.024238095 -0.052501217 0.112724565 0.2921559
0.014673187 -0.096645854 -0.2251467 0.014558598 0.0017197065 0.16923739 -0.07442984 0.0023862391
0.29391882 -0.08088768 -0.23877937 -0.07944845 -0.19672973 0.23127511 -0.26675442 -0.26283062
-0.2626385 -0.14296098 0.12797126 -0.31643927 -0.026039284 0.051475316 -0.04272167 0.28680542
-0.090188205 0.08993499 0.2488931 -0.08902218 -0.13311851 0.010965191 0.055359975 -0.028915884
-0.0077968813 -0.039072625 0.1566648 0.14235738 0.12185708 0.12349979 0.02507978 -0.26714808
0.16093533 -0.23104869 0.0069731516 -0.121047355 -0.0011548107 0.087339856 -0.11538617 0.2495418
0.062434968 0.1014884 0.10521039 -0.19714665 -0.2083953 -0.0069834148 -0.13323995 0.062664926
-0.07594897 -0.0072162123 0.045564417 -0.042469963 0.17537738 -0.014434488 0.14407928 -0.04036329
-0.23013742 -0.10636563 0.066017434 0.08396801 0.002775786 -0.044887353 0.018458672 -0.1119982
-0.038175117 0.050910432 0.23047216 -0.12384145 0.12371738 -0.05219659 0.18112421 -0.108883224
-0.04823333 -0.040624473 -0.12979715 0.0558839 0.21343102 -0.061955977 -0.2658175 -0.1989813
-0.11321867 0.1282405 -0.088799484 0.13419811 0.14668088 -0.12102045 0.1849829 -0.10851282
-0.03273925 0.12054575 -0.1548761 -0.06720534 -0.025723215 0.040074997 -0.04027941 0.1579305
-0.084725715 -0.029441224 -0.043316353 -0.22586559 -0.0850435 0.13522215 0.10199377 0.0343429
0.18544456 0.02584657 -0.14094384 -0.021663912 0.069000736 -0.0006948378 0.01367416 -0.19886646
-0.26180455 -0.22974075 -0.05083721 0.362835 0.2784644 0.13564675 0.3336857 -0.04734503
-0.1302397 0.06418232 0.019365428 -0.18073447 0.04041535 -0.17299648 0.047316376 0.120010726
-0.09727262 -0.3468175 -0.046505794 0.08143564 0.31918207 -0.0063603106 0.10795262 -0.10437572
-0.12808856 -0.30444944 -0.14860791 -0.01868587 0.12636864 -0.1455603 -0.048690286 -0.19687521
-0.023204936 0.05963166 -0.15765087 0.20064554 0.0729061 0.14110304 0.15499 -0.34661856
-0.12879004 0.17266054 -0.3716743 -0.27602702 0.08028079 0.00056838227 -0.12415376 -0.07104858
-0.08651066 0.15866683 -0.14477555 -0.017943887 0.24310571 0.0544275 -0.09054159 -0.22219928

_encoder.res_tower.1.conv2.bias f4 [16]
00000000: 2046 203d 4cc8 643c e10e c03c 7404 e33c
00000010: 4c38 9039 8629 943d 97c4 4e3d b9ad 813a
00000020: a253 973d 1693 5e3d 40e5 94bd b2f7 0f3d
00000030: dda4 cd3c 6890 ebbb ec5c 7abb b355 013d
0.039129376 0.01396377 0.023444595 0.027712084 0.00027507765 0.072344825 0.05048045 0.0009893692
0.073889986 0.05433949 -0.072702885 0.03514833 0.025103027 -0.0071888454 -0.0038202358 0.03157587

_encoder.res_tower.1.bn2.weight f4 [16]
00000000: 0103 513f 2f09 753f adf9 5e3f f9aa 883f
00000010: d643 543f 7111 4c3f f719 663f 5df0 5f3f
00000020: 96cb 673f 048b 1d3f 0d7f 2d3f 29f0 683f
00000030: 1cd2 463f cef6 763f f0a4 673f 12a8 413f
0.8164521 0.9571714 0.87099725 1.0677177 0.8291601 0.79714113 0.8988337 0.8747614
0.9054502 0.61540246 0.6777199 0.90991455 0.7766435 0.96470344 0.9048605 0.7564708

_encoder.res_tower.1.bn2.bias f4 [16]
00000000: 3004 26be 09cf 42be 5514 28be 934b 23be
00000010: 5c55 563c 2502 12bb ec3f 83bd 8743 80be
00000020: 3cbd 5e3c 1bf0 813e 85c2 ec3a 7a9c 203e
00000030: 80a6 47be a8b6 cdbd 3a46 2bbe 0828 e1bc
-0.16212535 -0.1902429 -0.16414006 -0.15946798 0.013081875 -0.002227911 -0.064086765 -0.2505152
0.013594922 0.25378498 0.0018063342 0.15684691 -0.19497108 -0.100446045 -0.16726008 -0.027484909

_encoder.res_tower.1.bn2.running_mean f4 [16]
00000000: 088d 003f e9b2 7fbd f0d5 0ebf 10c1 4c3c
00000010: 3752 243f a382 c13e 6d98 6bbe f106 8d3f
00000020: 02fb be3d aa74 0b3e ac0e 09be 6969 043f
00000030: 037b 11be 2e22 9bbe 4a95 8abd 6018 463e
0.50215197 -0.06242648 -0.5579519 0.012497202 0.6418795 0.3779498 -0.23007365 1.1017743
0.0932522 0.13618723 -0.13384503 0.51723343 -0.14207081 -0.30299515 -0.06766756 0.19345236

_encoder.res_tower.1.bn2.running_var f4 [16]
00000000: 5706 373f 6966 333f 93f2 5a3f ad6a 443f
00000010: fbb9 623f e3a9 4f3f ae54 393f e7f1 553f
00000020: 20f5 823f 1ed0 983f 1be4 363f 27b2 8f3f
00000030: d58d 333f 183f 833f 118b 183f d661 5d3f
0.7149405 0.7007814 0.8552639 0.76725274 0.88565034 0.811186 0.72394836 0.8357224
1.0231056 1.1938512 0.7144181 1.1226243 0.70138294 1.025363 0.595872 0.8647741

_encoder.res_tower.2.conv1.weight f4 [16, 16, 3, 3]
00000000: cf44 083e b1d9 9a3d 02c2 ae3e bed0 c7bd
00000010: f134 ad3d 56b9 fbbd 472e f93d 4f44 903e
00000020: c4e2 4ebe 585b 54be d540 8fbc b535 e2ba
00000030: c5d1 07bd 6d21 87bd 9323 63be 657f 733e
00000040: e673 9e3d 437a eb3c 2fe0 e7bd 2eae 823e
00000050: 7cb9 90be 2908 b33e 05b6 783e af68 c83d
00000060: fad5 bbbd 13dc 943d 31bc 8c3e ffb9 363e
00000070: a2be 11be 2b8a 25be 3701 43be 5c57 723e
00000080: 7296 06ba b434 6b3d 7bd2 3ebe d64c 7bbd
00000090: c7bd 1ebe 645c 04be aac8 b33c 8d05 75be
000000a0: b423 95be 7504 06be 7d0f d7bc 55a8 eb3d
000000b0: fd1a 603e 8b64 323e a173 f73c b289 603e
000000c0: 3264 e53d 49c2 09bd 133b 90be 2235 e1bd
000000d0: 4ac8 ca3d 9832 45be 4dc2 c6bd d719 03bd
000000e0: 0bfa c23e 8a9e b33d 7809 9f3d 1b1c 7ebe
000000f0: 008b 1c3e 677c 1fbd 9434 5e3d c494 5a3d
00000100: a2bf 833e 53ba 513d a020 4ebe acdd 99bd
00000110: 1d92 3b3d ccfc 2c3d c39b 4fbe ae90 203d
00000120: deae 8f3e 33e4 2e3d 22e4 cdbd 878e c0bd
00000130: 41d8 6fbd 0c44 913d 566f 003e 31a9 3fbd
00000140: fb35 9abd e73e 503e 677c 3ebe 8963 a6bd
00000150: 7c6e 19bd 14e9 783d 4d33 a8be d7ad 6ebe
00000160: 4c1d 4cbe aa90 c1bc 29b9 02bd 269a 48be
00000170: 4dda e1bc 0834 3cbe 1445 0dbe 5379 47be
00000180: dc2f 183e 2f44 13bd 5db5 0cbe fbbf 1d3e
00000190: f016 bc3d 7f6c d63d 2bbd ffbd 5601 40bc
000001a0: 6d83 ccbc ecc9 983d e39d 883e 5601 e83c
000001b0: fa8b 84bc e01a a3be 6e8c a93e 80a2 b1bd
000001c0: bcee a13b 1a76 363c 39ca a9bd 03a9 ce3c
000001d0: 01cd 813e 0b23 d9bd 8b90 713e ffb7 94bd
000001e0: 98de afbe 2b83 943e 5c26 3abd b158 05be
000001f0: e177 363d 6193 143c b9ca c7bd 2301 72be
00000200: c836 6bbc 3337 343e e335 6bbe ca66 0fbe
00000210: 2dec 86bd ad9c 0cbe 47d8 f63d 5385 163e
00000220: 3962 54bc f4c4 dc3d 663e fb3d 122d afbd
00000230: bd72 efbd ac98 3a3e db96 69be 2ced 4b3e
00000240: bfa7 31be 42bb 9c3e 06f9 a03d 5997 253e
00000250: 5ab5 a5bc bfb0 163e 1e2c 5c3b df48 70bd
00000260: 54ba 3a3e 0bb2 2ebe b88d 9abe 810f debd
00000270: 6908 d33e 92f3 01bd 6b0f 8abe 9edd b33c
00000280: 7a0e fcbd 8281 753e 5e0d 9fbd fdf7 7abd
00000290: 2a8a a4bd f95b 283d eb53 3dbe 3e98 01be
000002a0: 31e7 003c 9876 8d3e 178a 08bd a754 a6bd
000002b0: 481b e73b 1450 fabd c320 09be f03d da3d
000002c0: 77f8 4ebd bde8 f3bc a11d e6ba 2b2b d4bd
000002d0: 2d62 be3d 9281 033c 67c9 4c3e 74fa 593c
000002e0: 471e 413d d265 813e d9cb 343d 0a2a b93c
000002f0: f951 c73e 05d6 8dbd 1faa 87be 966d ad3c
00000300: d9b3 23be 8bb6 72be b244 ee3d 5171 81be
00000310: 7ab3 3a3c b533 40be cb50 71be 3414 683d
00000320: 62b0 80be 5a02 f8bc 2725 233d 89b2 c43c
00000330: cbd0 793e 2734 2b3d 3ad5 3ebe 5afa a73b
00000340: 4746 bf3c 1925 5a3e a383 e4bc 7281 a93d
00000350: 47be 633d 59b3 2d3e e79a fc3d 8e41 7e3d
00000360: aed2 a3bc c731 803e 946c 4e3e 2fd2 a2bc
00000370: f424 c1be 25e5 343e 84cd 833d fa2b 3b3e
00000380: c0c8 153e 7466 b9bd f3f4 2fbe 74d9 6abc
00000390: 4eda 633e 22cf a13e 1454 dcbd e482 413e
000003a0: 7903 843e e0e2 79be 49c1 e93a 7eca e83e
000003b0: 833e 53bb 3bcf 37be 4469 8cbd 28a6 b63b
000003c0: 465d d83c 8a62 a9bd 4b7d 1dbe b646 27be
000003d0: 2dec 5abd 018d 883e 7d28 123e dbfa b13d
000003e0: 7f5d 9f3c 1ea7 c739 70c3 c7bd 5c7e f93d
000003f0: 9781 3d3e 50be ecbd 35a4 233e b629 6abc
0.13307498 0.075610526 0.3413239 -0.09756611 0.084573634 -0.122912094 0.1216703 0.28177115
-0.20203692 -0.2073797 -0.017486969 -0.0017258438 -0.033159036 -0.06598172 -0.22181539 0.23779066
0.077369496 0.028744822 -0.113220565 0.25523514 -0.28266513 0.34967163 0.24288185 0.09785592
-0.09171672 0.07268538 0.2748733 0.1784439 -0.14232877 -0.16165988 -0.19043432 0.23666137
-0.00051341124 0.05742331 -0.1863498 -0.061352573 -0.15502082 -0.12925869 0.02194627 -0.23927899
-0.29128802 -0.13087638 -0.026252503 0.11506716 0.21885295 0.17421167 0.030206503 0.21927527
0.11200751 -0.03363255 -0.2817007 -0.109964624 0.09901483 -0.19257581 -0.09705029 -0.032007065
0.38081393 0.08770473 0.07765478 -0.24815409 0.152874 -0.038937 0.05424936 0.05336453
0.25732142 0.051203083 -0.20129633 -0.07512984 0.04579364 0.042233273 -0.20274262 0.039200477
0.280631 0.042698096 -0.100532785 -0.09402185 -0.058555845 0.07093057 0.12542471 -0.046792213
-0.07529827 0.20336495 -0.18602143 -0.081244536 -0.03745888 0.060769156 -0.3285164 -0.23308502
-0.19933051 -0.023628552 -0.031914864 -0.19590053 -0.027569914 -0.18379223 -0.13795882 -0.19479875
0.14862007 -0.035953697 -0.1374106 0.15405266 0.091840625 0.10469913 -0.12487253 -0.0117190685
-0.024965012 0.074603885 0.26682958 0.02832095 -0.016180027 -0.31856441 0.33114952 -0.086735725
0.0049417894 0.011136556 -0.08290524 0.025227075 0.25351718 -0.10602387 0.23590295 -0.07261657
-0.34349513 0.29006323 -0.04544674 -0.13022114 0.04454792 0.009068341 -0.09755463 -0.23633246
-0.014356323 0.17599182 -0.22969775 -0.14004055 -0.06588016 -0.13731642 0.120529704 0.14699297
-0.012962871 0.10779753 0.12267761 -0.08553518 -0.116918065 0.18222302 -0.22811453 0.19914693
-0.17349146 0.30611616 0.078599975 0.16171016 -0.020228077 0.14715861 0.0033595632 -0.058663245
0.18235141 -0.17060106 -0.30186248 -0.10842801 0.41217354 -0.031726427 -0.26964888 0.021956261
-0.12307449 0.23975185 -0.077662215 -0.061271656 -0.08034165 0.041103337 -0.18489043 -0.12655732
0.00786762 0.27629542 -0.033334818 -0.08121615 0.0070528127 -0.12222305 -0.13391404 0.10656345
-0.050529923 -0.029774064 -0.0017556438 -0.10359796 0.09296069 0.008026497 0.19998704 0.013304342
0.047148015 0.25272995 0.044139717 0.022603054 0.38929728 -0.069255866 -0.2649698 0.021170419
-0.15986575 -0.23702447 0.11634196 -0.25281766 0.01139533 -0.18769725 -0.23565976 0.056659892
-0.2513457 -0.030274559 0.039830353 0.024010913 0.24396054 0.041797783 -0.18636027 0.00512628
0.02334894 0.21303214 -0.0278948 0.08276643 0.055601384 0.16962947 0.12334233 0.062074237
-0.01999792 0.25037977 0.20158607 -0.019875614 -0.37723505 0.17665537 0.06435683 0.18278494
0.14627361 -0.090527445 -0.17183284 -0.014334071 0.22251245 0.31603342 -0.10758224 0.18897587
0.257839 -0.24402952 0.0017834093 0.4546699 -0.0032233305 -0.17950146 -0.06856015 0.0055740066
0.026411664 -0.08270748 -0.15379827 -0.16335568 -0.05344789 0.26670077 0.14273258 0.08690425
0.019453762 0.0003808075 -0.097540736 0.12182304 0.18506466 -0.11559737 0.15980609 -0.014292171

_encoder.res_tower.2.conv1.bias f4 [16]
00000000: 35b2 633d 02d8 c0bc 61c0 4ebd 5746 8e3b
00000010: 6141 fdbc 9a9c 34bd b6c7 463d 6618 97bd
00000020: 51aa 46bc 6a03 7abc ba68 86bd daa6 92bd
00000030: ce71 13bd 0bb8 0abd c309 2d3c 495e ee3a
0.055589873 -0.0235405 -0.050476436 0.0043418813 -0.030914964 -0.04409466 0.048530303 -0.073777005
-0.0121255675 -0.015259603 -0.06562944 -0.07160731 -0.035997204 -0.033866923 0.010561409 0.0018186058

_encoder.res_tower.2.bn1.weight f4 [16]
00000000: 8688 863f f4a1 643f 659d 6d3f 3043 813f
00000010: a489 7f3f 86b2 8d3f 2018 773f 11fc 813f
00000020: 6bb1 5f3f 1452 803f 7132 673f 57f9 723f
00000030: 89eb 653f ed87 6f3f 6ebc 653f 2241 833f
1.0510414 0.8930962 0.9281829 1.0098629 0.998194 1.1070106 0.96521187 1.015505
0.87380093 1.0025048 0.9031134 0.9491171 0.89812523 0.9356678 0.89740646 1.0254252

_encoder.res_tower.2.bn1.bias f4 [16]
00000000: 47bc f0bd eea6 c0bd 55a9 4ebd 26fe 88bd
00000010: e6de 4bbe 7e86 1b3c ef6c 30bd 2093 053d
00000020: 9655 133c 5499 043c 5c5b 953d 8ac6 01be
00000030: e43a d0bc ad64 5bbe 12ee d13c 6077 88bd
-0.11754661 -0.09406839 -0.050454456 -0.066891 -0.19909248 0.009492515 -0.043072637 0.032611012
0.008992573 0.008093197 0.07292816 -0.12673393 -0.025418706 -0.21425124 0.025626216 -0.06663394

_encoder.res_tower.2.bn1.running_mean f4 [16]
00000000: 711c 1cbf f8b3 e03e 0bff a03e 04f9 93bf
00000010: f27f e93b 61dd ebbf a0f0 1c3f 5b5a 49bf
00000020: 31a2 eb3d 7ddd 3dbf 6c9a 6a3b d3be 8fbe
00000030: 51ab 673f dafc 3e3f 78da 1c3e f7fa a3bf
-0.609809 0.43887305 0.31444582 -1.1560369 0.007125848 -1.8426934 0.61304665 -0.78653497
0.11505545 -0.7416609 0.003579761 -0.28075275 0.90495783 0.7460457 0.15317714 -1.2810963

_encoder.res_tower.2.bn1.running_var f4 [16]
00000000: 4fca 5b40 2fa2 2b40 2732 8340 28ea 3440
00000010: b58e 2640 449f 4740 d105 8340 b148 3d40
00000020: 4bb0 7f40 3aac 3e40 4df9 5140 317a 2940
00000030: 46ae 7240 12f2 8840 413c 9440 0b6a 6440
3.434223 2.681774 4.099872 2.8267918 2.6024601 3.1190958 4.09446 2.9575617
3.995135 2.9792619 3.280841 2.648083 3.7918868 4.2795496 4.632355 3.5689723
